{
  "nodes": [
    {
      "op": "null", 
      "name": "data", 
      "inputs": []
    }, 
    {
      "op": "Reshape", 
      "name": "reshape0", 
      "attrs": {"shape": "(1, 1, 40, -1)"}, 
      "inputs": [[0, 0, 0]]
    }, 
    {
      "op": "null", 
      "name": "convolution0_weight", 
      "attrs": {
        "cudnn_off": "True", 
        "cudnn_tune": "off", 
        "dilate": "(1, 1)", 
        "kernel": "(3, 3)", 
        "no_bias": "False", 
        "num_filter": "64", 
        "pad": "(1, 1)", 
        "stride": "(1, 1)"
      }, 
      "inputs": []
    }, 
    {
      "op": "null", 
      "name": "convolution0_bias", 
      "attrs": {
        "cudnn_off": "True", 
        "cudnn_tune": "off", 
        "dilate": "(1, 1)", 
        "kernel": "(3, 3)", 
        "no_bias": "False", 
        "num_filter": "64", 
        "pad": "(1, 1)", 
        "stride": "(1, 1)"
      }, 
      "inputs": []
    }, 
    {
      "op": "Convolution", 
      "name": "convolution0", 
      "attrs": {
        "cudnn_off": "True", 
        "cudnn_tune": "off", 
        "dilate": "(1, 1)", 
        "kernel": "(3, 3)", 
        "no_bias": "False", 
        "num_filter": "64", 
        "pad": "(1, 1)", 
        "stride": "(1, 1)"
      }, 
      "inputs": [[1, 0, 0], [2, 0, 0], [3, 0, 0]]
    }, 
    {
      "op": "null", 
      "name": "label", 
      "inputs": []
    }, 
    {
      "op": "MaskZero", 
      "name": "maskzero0", 
      "inputs": [[4, 0, 0], [5, 0, 0]]
    }, 
    {
      "op": "LeakyReLU", 
      "name": "leakyrelu0", 
      "attrs": {"slope": "0.1"}, 
      "inputs": [[6, 0, 0]]
    }, 
    {
      "op": "null", 
      "name": "convolution1_weight", 
      "attrs": {
        "cudnn_off": "True", 
        "cudnn_tune": "off", 
        "dilate": "(1, 1)", 
        "kernel": "(1, 2)", 
        "no_bias": "True", 
        "num_filter": "64", 
        "pad": "(0, 0)", 
        "stride": "(1, 2)"
      }, 
      "inputs": []
    }, 
    {
      "op": "Convolution", 
      "name": "convolution1", 
      "attrs": {
        "cudnn_off": "True", 
        "cudnn_tune": "off", 
        "dilate": "(1, 1)", 
        "kernel": "(1, 2)", 
        "no_bias": "True", 
        "num_filter": "64", 
        "pad": "(0, 0)", 
        "stride": "(1, 2)"
      }, 
      "inputs": [[7, 0, 0], [8, 0, 0]]
    }, 
    {
      "op": "MaskZero", 
      "name": "maskzero1", 
      "inputs": [[9, 0, 0], [5, 0, 0]]
    }, 
    {
      "op": "Pooling", 
      "name": "pooling0", 
      "attrs": {
        "kernel": "(1, 2)", 
        "pool_type": "max", 
        "stride": "(1, 2)"
      }, 
      "inputs": [[7, 0, 0]]
    }, 
    {
      "op": "null", 
      "name": "convolution2_weight", 
      "attrs": {
        "cudnn_off": "True", 
        "cudnn_tune": "off", 
        "dilate": "(1, 1)", 
        "kernel": "(3, 3)", 
        "no_bias": "False", 
        "num_filter": "64", 
        "pad": "(1, 1)", 
        "stride": "(1, 1)"
      }, 
      "inputs": []
    }, 
    {
      "op": "null", 
      "name": "convolution2_bias", 
      "attrs": {
        "cudnn_off": "True", 
        "cudnn_tune": "off", 
        "dilate": "(1, 1)", 
        "kernel": "(3, 3)", 
        "no_bias": "False", 
        "num_filter": "64", 
        "pad": "(1, 1)", 
        "stride": "(1, 1)"
      }, 
      "inputs": []
    }, 
    {
      "op": "Convolution", 
      "name": "convolution2", 
      "attrs": {
        "cudnn_off": "True", 
        "cudnn_tune": "off", 
        "dilate": "(1, 1)", 
        "kernel": "(3, 3)", 
        "no_bias": "False", 
        "num_filter": "64", 
        "pad": "(1, 1)", 
        "stride": "(1, 1)"
      }, 
      "inputs": [[11, 0, 0], [12, 0, 0], [13, 0, 0]]
    }, 
    {
      "op": "MaskZero", 
      "name": "maskzero2", 
      "inputs": [[14, 0, 0], [5, 0, 0]]
    }, 
    {
      "op": "LeakyReLU", 
      "name": "leakyrelu1", 
      "attrs": {"slope": "0.1"}, 
      "inputs": [[15, 0, 0]]
    }, 
    {
      "op": "Dropout", 
      "name": "dropout0", 
      "attrs": {
        "flag": "True", 
        "p": "0.1"
      }, 
      "inputs": [[16, 0, 0]]
    }, 
    {
      "op": "null", 
      "name": "convolution3_weight", 
      "attrs": {
        "cudnn_off": "True", 
        "cudnn_tune": "off", 
        "dilate": "(1, 1)", 
        "kernel": "(3, 3)", 
        "no_bias": "False", 
        "num_filter": "64", 
        "pad": "(1, 1)", 
        "stride": "(1, 1)"
      }, 
      "inputs": []
    }, 
    {
      "op": "null", 
      "name": "convolution3_bias", 
      "attrs": {
        "cudnn_off": "True", 
        "cudnn_tune": "off", 
        "dilate": "(1, 1)", 
        "kernel": "(3, 3)", 
        "no_bias": "False", 
        "num_filter": "64", 
        "pad": "(1, 1)", 
        "stride": "(1, 1)"
      }, 
      "inputs": []
    }, 
    {
      "op": "Convolution", 
      "name": "convolution3", 
      "attrs": {
        "cudnn_off": "True", 
        "cudnn_tune": "off", 
        "dilate": "(1, 1)", 
        "kernel": "(3, 3)", 
        "no_bias": "False", 
        "num_filter": "64", 
        "pad": "(1, 1)", 
        "stride": "(1, 1)"
      }, 
      "inputs": [[17, 0, 0], [18, 0, 0], [19, 0, 0]]
    }, 
    {
      "op": "MaskZero", 
      "name": "maskzero3", 
      "inputs": [[20, 0, 0], [5, 0, 0]]
    }, 
    {
      "op": "elemwise_add", 
      "name": "_plus0", 
      "inputs": [[10, 0, 0], [21, 0, 0]]
    }, 
    {
      "op": "LeakyReLU", 
      "name": "leakyrelu2", 
      "attrs": {"slope": "0.1"}, 
      "inputs": [[22, 0, 0]]
    }, 
    {
      "op": "null", 
      "name": "convolution4_weight", 
      "attrs": {
        "cudnn_off": "True", 
        "cudnn_tune": "off", 
        "dilate": "(1, 1)", 
        "kernel": "(3, 3)", 
        "no_bias": "False", 
        "num_filter": "64", 
        "pad": "(1, 1)", 
        "stride": "(1, 1)"
      }, 
      "inputs": []
    }, 
    {
      "op": "null", 
      "name": "convolution4_bias", 
      "attrs": {
        "cudnn_off": "True", 
        "cudnn_tune": "off", 
        "dilate": "(1, 1)", 
        "kernel": "(3, 3)", 
        "no_bias": "False", 
        "num_filter": "64", 
        "pad": "(1, 1)", 
        "stride": "(1, 1)"
      }, 
      "inputs": []
    }, 
    {
      "op": "Convolution", 
      "name": "convolution4", 
      "attrs": {
        "cudnn_off": "True", 
        "cudnn_tune": "off", 
        "dilate": "(1, 1)", 
        "kernel": "(3, 3)", 
        "no_bias": "False", 
        "num_filter": "64", 
        "pad": "(1, 1)", 
        "stride": "(1, 1)"
      }, 
      "inputs": [[23, 0, 0], [24, 0, 0], [25, 0, 0]]
    }, 
    {
      "op": "MaskZero", 
      "name": "maskzero4", 
      "inputs": [[26, 0, 0], [5, 0, 0]]
    }, 
    {
      "op": "LeakyReLU", 
      "name": "leakyrelu3", 
      "attrs": {"slope": "0.1"}, 
      "inputs": [[27, 0, 0]]
    }, 
    {
      "op": "Dropout", 
      "name": "dropout1", 
      "attrs": {
        "flag": "True", 
        "p": "0.1"
      }, 
      "inputs": [[28, 0, 0]]
    }, 
    {
      "op": "null", 
      "name": "convolution5_weight", 
      "attrs": {
        "cudnn_off": "True", 
        "cudnn_tune": "off", 
        "dilate": "(1, 1)", 
        "kernel": "(3, 3)", 
        "no_bias": "False", 
        "num_filter": "64", 
        "pad": "(1, 1)", 
        "stride": "(1, 1)"
      }, 
      "inputs": []
    }, 
    {
      "op": "null", 
      "name": "convolution5_bias", 
      "attrs": {
        "cudnn_off": "True", 
        "cudnn_tune": "off", 
        "dilate": "(1, 1)", 
        "kernel": "(3, 3)", 
        "no_bias": "False", 
        "num_filter": "64", 
        "pad": "(1, 1)", 
        "stride": "(1, 1)"
      }, 
      "inputs": []
    }, 
    {
      "op": "Convolution", 
      "name": "convolution5", 
      "attrs": {
        "cudnn_off": "True", 
        "cudnn_tune": "off", 
        "dilate": "(1, 1)", 
        "kernel": "(3, 3)", 
        "no_bias": "False", 
        "num_filter": "64", 
        "pad": "(1, 1)", 
        "stride": "(1, 1)"
      }, 
      "inputs": [[29, 0, 0], [30, 0, 0], [31, 0, 0]]
    }, 
    {
      "op": "MaskZero", 
      "name": "maskzero5", 
      "inputs": [[32, 0, 0], [5, 0, 0]]
    }, 
    {
      "op": "elemwise_add", 
      "name": "_plus1", 
      "inputs": [[22, 0, 0], [33, 0, 0]]
    }, 
    {
      "op": "null", 
      "name": "convolution6_weight", 
      "attrs": {
        "cudnn_off": "True", 
        "cudnn_tune": "off", 
        "dilate": "(1, 1)", 
        "kernel": "(2, 2)", 
        "no_bias": "True", 
        "num_filter": "96", 
        "pad": "(0, 0)", 
        "stride": "(2, 2)"
      }, 
      "inputs": []
    }, 
    {
      "op": "Convolution", 
      "name": "convolution6", 
      "attrs": {
        "cudnn_off": "True", 
        "cudnn_tune": "off", 
        "dilate": "(1, 1)", 
        "kernel": "(2, 2)", 
        "no_bias": "True", 
        "num_filter": "96", 
        "pad": "(0, 0)", 
        "stride": "(2, 2)"
      }, 
      "inputs": [[34, 0, 0], [35, 0, 0]]
    }, 
    {
      "op": "MaskZero", 
      "name": "maskzero6", 
      "inputs": [[36, 0, 0], [5, 0, 0]]
    }, 
    {
      "op": "LeakyReLU", 
      "name": "leakyrelu4", 
      "attrs": {"slope": "0.1"}, 
      "inputs": [[34, 0, 0]]
    }, 
    {
      "op": "Pooling", 
      "name": "pooling1", 
      "attrs": {
        "kernel": "(2, 2)", 
        "pool_type": "max", 
        "stride": "(2, 2)"
      }, 
      "inputs": [[38, 0, 0]]
    }, 
    {
      "op": "null", 
      "name": "convolution7_weight", 
      "attrs": {
        "cudnn_off": "True", 
        "cudnn_tune": "off", 
        "dilate": "(1, 1)", 
        "kernel": "(3, 3)", 
        "no_bias": "False", 
        "num_filter": "96", 
        "pad": "(1, 1)", 
        "stride": "(1, 1)"
      }, 
      "inputs": []
    }, 
    {
      "op": "null", 
      "name": "convolution7_bias", 
      "attrs": {
        "cudnn_off": "True", 
        "cudnn_tune": "off", 
        "dilate": "(1, 1)", 
        "kernel": "(3, 3)", 
        "no_bias": "False", 
        "num_filter": "96", 
        "pad": "(1, 1)", 
        "stride": "(1, 1)"
      }, 
      "inputs": []
    }, 
    {
      "op": "Convolution", 
      "name": "convolution7", 
      "attrs": {
        "cudnn_off": "True", 
        "cudnn_tune": "off", 
        "dilate": "(1, 1)", 
        "kernel": "(3, 3)", 
        "no_bias": "False", 
        "num_filter": "96", 
        "pad": "(1, 1)", 
        "stride": "(1, 1)"
      }, 
      "inputs": [[39, 0, 0], [40, 0, 0], [41, 0, 0]]
    }, 
    {
      "op": "MaskZero", 
      "name": "maskzero7", 
      "inputs": [[42, 0, 0], [5, 0, 0]]
    }, 
    {
      "op": "LeakyReLU", 
      "name": "leakyrelu5", 
      "attrs": {"slope": "0.1"}, 
      "inputs": [[43, 0, 0]]
    }, 
    {
      "op": "Dropout", 
      "name": "dropout2", 
      "attrs": {
        "flag": "True", 
        "p": "0.1"
      }, 
      "inputs": [[44, 0, 0]]
    }, 
    {
      "op": "null", 
      "name": "convolution8_weight", 
      "attrs": {
        "cudnn_off": "True", 
        "cudnn_tune": "off", 
        "dilate": "(1, 1)", 
        "kernel": "(3, 3)", 
        "no_bias": "False", 
        "num_filter": "96", 
        "pad": "(1, 1)", 
        "stride": "(1, 1)"
      }, 
      "inputs": []
    }, 
    {
      "op": "null", 
      "name": "convolution8_bias", 
      "attrs": {
        "cudnn_off": "True", 
        "cudnn_tune": "off", 
        "dilate": "(1, 1)", 
        "kernel": "(3, 3)", 
        "no_bias": "False", 
        "num_filter": "96", 
        "pad": "(1, 1)", 
        "stride": "(1, 1)"
      }, 
      "inputs": []
    }, 
    {
      "op": "Convolution", 
      "name": "convolution8", 
      "attrs": {
        "cudnn_off": "True", 
        "cudnn_tune": "off", 
        "dilate": "(1, 1)", 
        "kernel": "(3, 3)", 
        "no_bias": "False", 
        "num_filter": "96", 
        "pad": "(1, 1)", 
        "stride": "(1, 1)"
      }, 
      "inputs": [[45, 0, 0], [46, 0, 0], [47, 0, 0]]
    }, 
    {
      "op": "MaskZero", 
      "name": "maskzero8", 
      "inputs": [[48, 0, 0], [5, 0, 0]]
    }, 
    {
      "op": "elemwise_add", 
      "name": "_plus2", 
      "inputs": [[37, 0, 0], [49, 0, 0]]
    }, 
    {
      "op": "LeakyReLU", 
      "name": "leakyrelu6", 
      "attrs": {"slope": "0.1"}, 
      "inputs": [[50, 0, 0]]
    }, 
    {
      "op": "null", 
      "name": "convolution9_weight", 
      "attrs": {
        "cudnn_off": "True", 
        "cudnn_tune": "off", 
        "dilate": "(1, 1)", 
        "kernel": "(3, 3)", 
        "no_bias": "False", 
        "num_filter": "96", 
        "pad": "(1, 1)", 
        "stride": "(1, 1)"
      }, 
      "inputs": []
    }, 
    {
      "op": "null", 
      "name": "convolution9_bias", 
      "attrs": {
        "cudnn_off": "True", 
        "cudnn_tune": "off", 
        "dilate": "(1, 1)", 
        "kernel": "(3, 3)", 
        "no_bias": "False", 
        "num_filter": "96", 
        "pad": "(1, 1)", 
        "stride": "(1, 1)"
      }, 
      "inputs": []
    }, 
    {
      "op": "Convolution", 
      "name": "convolution9", 
      "attrs": {
        "cudnn_off": "True", 
        "cudnn_tune": "off", 
        "dilate": "(1, 1)", 
        "kernel": "(3, 3)", 
        "no_bias": "False", 
        "num_filter": "96", 
        "pad": "(1, 1)", 
        "stride": "(1, 1)"
      }, 
      "inputs": [[51, 0, 0], [52, 0, 0], [53, 0, 0]]
    }, 
    {
      "op": "MaskZero", 
      "name": "maskzero9", 
      "inputs": [[54, 0, 0], [5, 0, 0]]
    }, 
    {
      "op": "LeakyReLU", 
      "name": "leakyrelu7", 
      "attrs": {"slope": "0.1"}, 
      "inputs": [[55, 0, 0]]
    }, 
    {
      "op": "Dropout", 
      "name": "dropout3", 
      "attrs": {
        "flag": "True", 
        "p": "0.1"
      }, 
      "inputs": [[56, 0, 0]]
    }, 
    {
      "op": "null", 
      "name": "convolution10_weight", 
      "attrs": {
        "cudnn_off": "True", 
        "cudnn_tune": "off", 
        "dilate": "(1, 1)", 
        "kernel": "(3, 3)", 
        "no_bias": "False", 
        "num_filter": "96", 
        "pad": "(1, 1)", 
        "stride": "(1, 1)"
      }, 
      "inputs": []
    }, 
    {
      "op": "null", 
      "name": "convolution10_bias", 
      "attrs": {
        "cudnn_off": "True", 
        "cudnn_tune": "off", 
        "dilate": "(1, 1)", 
        "kernel": "(3, 3)", 
        "no_bias": "False", 
        "num_filter": "96", 
        "pad": "(1, 1)", 
        "stride": "(1, 1)"
      }, 
      "inputs": []
    }, 
    {
      "op": "Convolution", 
      "name": "convolution10", 
      "attrs": {
        "cudnn_off": "True", 
        "cudnn_tune": "off", 
        "dilate": "(1, 1)", 
        "kernel": "(3, 3)", 
        "no_bias": "False", 
        "num_filter": "96", 
        "pad": "(1, 1)", 
        "stride": "(1, 1)"
      }, 
      "inputs": [[57, 0, 0], [58, 0, 0], [59, 0, 0]]
    }, 
    {
      "op": "MaskZero", 
      "name": "maskzero10", 
      "inputs": [[60, 0, 0], [5, 0, 0]]
    }, 
    {
      "op": "elemwise_add", 
      "name": "_plus3", 
      "inputs": [[50, 0, 0], [61, 0, 0]]
    }, 
    {
      "op": "LeakyReLU", 
      "name": "leakyrelu8", 
      "attrs": {"slope": "0.1"}, 
      "inputs": [[62, 0, 0]]
    }, 
    {
      "op": "null", 
      "name": "convolution11_weight", 
      "attrs": {
        "cudnn_off": "True", 
        "cudnn_tune": "off", 
        "dilate": "(1, 1)", 
        "kernel": "(3, 3)", 
        "no_bias": "False", 
        "num_filter": "96", 
        "pad": "(1, 1)", 
        "stride": "(1, 1)"
      }, 
      "inputs": []
    }, 
    {
      "op": "null", 
      "name": "convolution11_bias", 
      "attrs": {
        "cudnn_off": "True", 
        "cudnn_tune": "off", 
        "dilate": "(1, 1)", 
        "kernel": "(3, 3)", 
        "no_bias": "False", 
        "num_filter": "96", 
        "pad": "(1, 1)", 
        "stride": "(1, 1)"
      }, 
      "inputs": []
    }, 
    {
      "op": "Convolution", 
      "name": "convolution11", 
      "attrs": {
        "cudnn_off": "True", 
        "cudnn_tune": "off", 
        "dilate": "(1, 1)", 
        "kernel": "(3, 3)", 
        "no_bias": "False", 
        "num_filter": "96", 
        "pad": "(1, 1)", 
        "stride": "(1, 1)"
      }, 
      "inputs": [[63, 0, 0], [64, 0, 0], [65, 0, 0]]
    }, 
    {
      "op": "MaskZero", 
      "name": "maskzero11", 
      "inputs": [[66, 0, 0], [5, 0, 0]]
    }, 
    {
      "op": "LeakyReLU", 
      "name": "leakyrelu9", 
      "attrs": {"slope": "0.1"}, 
      "inputs": [[67, 0, 0]]
    }, 
    {
      "op": "Dropout", 
      "name": "dropout4", 
      "attrs": {
        "flag": "True", 
        "p": "0.1"
      }, 
      "inputs": [[68, 0, 0]]
    }, 
    {
      "op": "null", 
      "name": "convolution12_weight", 
      "attrs": {
        "cudnn_off": "True", 
        "cudnn_tune": "off", 
        "dilate": "(1, 1)", 
        "kernel": "(3, 3)", 
        "no_bias": "False", 
        "num_filter": "96", 
        "pad": "(1, 1)", 
        "stride": "(1, 1)"
      }, 
      "inputs": []
    }, 
    {
      "op": "null", 
      "name": "convolution12_bias", 
      "attrs": {
        "cudnn_off": "True", 
        "cudnn_tune": "off", 
        "dilate": "(1, 1)", 
        "kernel": "(3, 3)", 
        "no_bias": "False", 
        "num_filter": "96", 
        "pad": "(1, 1)", 
        "stride": "(1, 1)"
      }, 
      "inputs": []
    }, 
    {
      "op": "Convolution", 
      "name": "convolution12", 
      "attrs": {
        "cudnn_off": "True", 
        "cudnn_tune": "off", 
        "dilate": "(1, 1)", 
        "kernel": "(3, 3)", 
        "no_bias": "False", 
        "num_filter": "96", 
        "pad": "(1, 1)", 
        "stride": "(1, 1)"
      }, 
      "inputs": [[69, 0, 0], [70, 0, 0], [71, 0, 0]]
    }, 
    {
      "op": "MaskZero", 
      "name": "maskzero12", 
      "inputs": [[72, 0, 0], [5, 0, 0]]
    }, 
    {
      "op": "elemwise_add", 
      "name": "_plus4", 
      "inputs": [[62, 0, 0], [73, 0, 0]]
    }, 
    {
      "op": "LeakyReLU", 
      "name": "leakyrelu10", 
      "attrs": {"slope": "0.1"}, 
      "inputs": [[74, 0, 0]]
    }, 
    {
      "op": "null", 
      "name": "convolution13_weight", 
      "attrs": {
        "cudnn_off": "True", 
        "cudnn_tune": "off", 
        "dilate": "(1, 1)", 
        "kernel": "(3, 3)", 
        "no_bias": "False", 
        "num_filter": "96", 
        "pad": "(1, 1)", 
        "stride": "(1, 1)"
      }, 
      "inputs": []
    }, 
    {
      "op": "null", 
      "name": "convolution13_bias", 
      "attrs": {
        "cudnn_off": "True", 
        "cudnn_tune": "off", 
        "dilate": "(1, 1)", 
        "kernel": "(3, 3)", 
        "no_bias": "False", 
        "num_filter": "96", 
        "pad": "(1, 1)", 
        "stride": "(1, 1)"
      }, 
      "inputs": []
    }, 
    {
      "op": "Convolution", 
      "name": "convolution13", 
      "attrs": {
        "cudnn_off": "True", 
        "cudnn_tune": "off", 
        "dilate": "(1, 1)", 
        "kernel": "(3, 3)", 
        "no_bias": "False", 
        "num_filter": "96", 
        "pad": "(1, 1)", 
        "stride": "(1, 1)"
      }, 
      "inputs": [[75, 0, 0], [76, 0, 0], [77, 0, 0]]
    }, 
    {
      "op": "MaskZero", 
      "name": "maskzero13", 
      "inputs": [[78, 0, 0], [5, 0, 0]]
    }, 
    {
      "op": "LeakyReLU", 
      "name": "leakyrelu11", 
      "attrs": {"slope": "0.1"}, 
      "inputs": [[79, 0, 0]]
    }, 
    {
      "op": "Dropout", 
      "name": "dropout5", 
      "attrs": {
        "flag": "True", 
        "p": "0.1"
      }, 
      "inputs": [[80, 0, 0]]
    }, 
    {
      "op": "null", 
      "name": "convolution14_weight", 
      "attrs": {
        "cudnn_off": "True", 
        "cudnn_tune": "off", 
        "dilate": "(1, 1)", 
        "kernel": "(3, 3)", 
        "no_bias": "False", 
        "num_filter": "96", 
        "pad": "(1, 1)", 
        "stride": "(1, 1)"
      }, 
      "inputs": []
    }, 
    {
      "op": "null", 
      "name": "convolution14_bias", 
      "attrs": {
        "cudnn_off": "True", 
        "cudnn_tune": "off", 
        "dilate": "(1, 1)", 
        "kernel": "(3, 3)", 
        "no_bias": "False", 
        "num_filter": "96", 
        "pad": "(1, 1)", 
        "stride": "(1, 1)"
      }, 
      "inputs": []
    }, 
    {
      "op": "Convolution", 
      "name": "convolution14", 
      "attrs": {
        "cudnn_off": "True", 
        "cudnn_tune": "off", 
        "dilate": "(1, 1)", 
        "kernel": "(3, 3)", 
        "no_bias": "False", 
        "num_filter": "96", 
        "pad": "(1, 1)", 
        "stride": "(1, 1)"
      }, 
      "inputs": [[81, 0, 0], [82, 0, 0], [83, 0, 0]]
    }, 
    {
      "op": "MaskZero", 
      "name": "maskzero14", 
      "inputs": [[84, 0, 0], [5, 0, 0]]
    }, 
    {
      "op": "elemwise_add", 
      "name": "_plus5", 
      "inputs": [[74, 0, 0], [85, 0, 0]]
    }, 
    {
      "op": "null", 
      "name": "convolution15_weight", 
      "attrs": {
        "cudnn_off": "True", 
        "cudnn_tune": "off", 
        "dilate": "(1, 1)", 
        "kernel": "(2, 2)", 
        "no_bias": "True", 
        "num_filter": "160", 
        "pad": "(0, 0)", 
        "stride": "(2, 2)"
      }, 
      "inputs": []
    }, 
    {
      "op": "Convolution", 
      "name": "convolution15", 
      "attrs": {
        "cudnn_off": "True", 
        "cudnn_tune": "off", 
        "dilate": "(1, 1)", 
        "kernel": "(2, 2)", 
        "no_bias": "True", 
        "num_filter": "160", 
        "pad": "(0, 0)", 
        "stride": "(2, 2)"
      }, 
      "inputs": [[86, 0, 0], [87, 0, 0]]
    }, 
    {
      "op": "MaskZero", 
      "name": "maskzero15", 
      "inputs": [[88, 0, 0], [5, 0, 0]]
    }, 
    {
      "op": "LeakyReLU", 
      "name": "leakyrelu12", 
      "attrs": {"slope": "0.1"}, 
      "inputs": [[86, 0, 0]]
    }, 
    {
      "op": "Pooling", 
      "name": "pooling2", 
      "attrs": {
        "kernel": "(2, 2)", 
        "pool_type": "max", 
        "stride": "(2, 2)"
      }, 
      "inputs": [[90, 0, 0]]
    }, 
    {
      "op": "null", 
      "name": "convolution16_weight", 
      "attrs": {
        "cudnn_off": "True", 
        "cudnn_tune": "off", 
        "dilate": "(1, 1)", 
        "kernel": "(3, 3)", 
        "no_bias": "False", 
        "num_filter": "160", 
        "pad": "(1, 1)", 
        "stride": "(1, 1)"
      }, 
      "inputs": []
    }, 
    {
      "op": "null", 
      "name": "convolution16_bias", 
      "attrs": {
        "cudnn_off": "True", 
        "cudnn_tune": "off", 
        "dilate": "(1, 1)", 
        "kernel": "(3, 3)", 
        "no_bias": "False", 
        "num_filter": "160", 
        "pad": "(1, 1)", 
        "stride": "(1, 1)"
      }, 
      "inputs": []
    }, 
    {
      "op": "Convolution", 
      "name": "convolution16", 
      "attrs": {
        "cudnn_off": "True", 
        "cudnn_tune": "off", 
        "dilate": "(1, 1)", 
        "kernel": "(3, 3)", 
        "no_bias": "False", 
        "num_filter": "160", 
        "pad": "(1, 1)", 
        "stride": "(1, 1)"
      }, 
      "inputs": [[91, 0, 0], [92, 0, 0], [93, 0, 0]]
    }, 
    {
      "op": "MaskZero", 
      "name": "maskzero16", 
      "inputs": [[94, 0, 0], [5, 0, 0]]
    }, 
    {
      "op": "LeakyReLU", 
      "name": "leakyrelu13", 
      "attrs": {"slope": "0.1"}, 
      "inputs": [[95, 0, 0]]
    }, 
    {
      "op": "Dropout", 
      "name": "dropout6", 
      "attrs": {
        "flag": "True", 
        "p": "0.1"
      }, 
      "inputs": [[96, 0, 0]]
    }, 
    {
      "op": "null", 
      "name": "convolution17_weight", 
      "attrs": {
        "cudnn_off": "True", 
        "cudnn_tune": "off", 
        "dilate": "(1, 1)", 
        "kernel": "(3, 3)", 
        "no_bias": "False", 
        "num_filter": "160", 
        "pad": "(1, 1)", 
        "stride": "(1, 1)"
      }, 
      "inputs": []
    }, 
    {
      "op": "null", 
      "name": "convolution17_bias", 
      "attrs": {
        "cudnn_off": "True", 
        "cudnn_tune": "off", 
        "dilate": "(1, 1)", 
        "kernel": "(3, 3)", 
        "no_bias": "False", 
        "num_filter": "160", 
        "pad": "(1, 1)", 
        "stride": "(1, 1)"
      }, 
      "inputs": []
    }, 
    {
      "op": "Convolution", 
      "name": "convolution17", 
      "attrs": {
        "cudnn_off": "True", 
        "cudnn_tune": "off", 
        "dilate": "(1, 1)", 
        "kernel": "(3, 3)", 
        "no_bias": "False", 
        "num_filter": "160", 
        "pad": "(1, 1)", 
        "stride": "(1, 1)"
      }, 
      "inputs": [[97, 0, 0], [98, 0, 0], [99, 0, 0]]
    }, 
    {
      "op": "MaskZero", 
      "name": "maskzero17", 
      "inputs": [[100, 0, 0], [5, 0, 0]]
    }, 
    {
      "op": "elemwise_add", 
      "name": "_plus6", 
      "inputs": [[89, 0, 0], [101, 0, 0]]
    }, 
    {
      "op": "LeakyReLU", 
      "name": "leakyrelu14", 
      "attrs": {"slope": "0.1"}, 
      "inputs": [[102, 0, 0]]
    }, 
    {
      "op": "null", 
      "name": "convolution18_weight", 
      "attrs": {
        "cudnn_off": "True", 
        "cudnn_tune": "off", 
        "dilate": "(1, 1)", 
        "kernel": "(3, 3)", 
        "no_bias": "False", 
        "num_filter": "160", 
        "pad": "(1, 1)", 
        "stride": "(1, 1)"
      }, 
      "inputs": []
    }, 
    {
      "op": "null", 
      "name": "convolution18_bias", 
      "attrs": {
        "cudnn_off": "True", 
        "cudnn_tune": "off", 
        "dilate": "(1, 1)", 
        "kernel": "(3, 3)", 
        "no_bias": "False", 
        "num_filter": "160", 
        "pad": "(1, 1)", 
        "stride": "(1, 1)"
      }, 
      "inputs": []
    }, 
    {
      "op": "Convolution", 
      "name": "convolution18", 
      "attrs": {
        "cudnn_off": "True", 
        "cudnn_tune": "off", 
        "dilate": "(1, 1)", 
        "kernel": "(3, 3)", 
        "no_bias": "False", 
        "num_filter": "160", 
        "pad": "(1, 1)", 
        "stride": "(1, 1)"
      }, 
      "inputs": [[103, 0, 0], [104, 0, 0], [105, 0, 0]]
    }, 
    {
      "op": "MaskZero", 
      "name": "maskzero18", 
      "inputs": [[106, 0, 0], [5, 0, 0]]
    }, 
    {
      "op": "LeakyReLU", 
      "name": "leakyrelu15", 
      "attrs": {"slope": "0.1"}, 
      "inputs": [[107, 0, 0]]
    }, 
    {
      "op": "Dropout", 
      "name": "dropout7", 
      "attrs": {
        "flag": "True", 
        "p": "0.1"
      }, 
      "inputs": [[108, 0, 0]]
    }, 
    {
      "op": "null", 
      "name": "convolution19_weight", 
      "attrs": {
        "cudnn_off": "True", 
        "cudnn_tune": "off", 
        "dilate": "(1, 1)", 
        "kernel": "(3, 3)", 
        "no_bias": "False", 
        "num_filter": "160", 
        "pad": "(1, 1)", 
        "stride": "(1, 1)"
      }, 
      "inputs": []
    }, 
    {
      "op": "null", 
      "name": "convolution19_bias", 
      "attrs": {
        "cudnn_off": "True", 
        "cudnn_tune": "off", 
        "dilate": "(1, 1)", 
        "kernel": "(3, 3)", 
        "no_bias": "False", 
        "num_filter": "160", 
        "pad": "(1, 1)", 
        "stride": "(1, 1)"
      }, 
      "inputs": []
    }, 
    {
      "op": "Convolution", 
      "name": "convolution19", 
      "attrs": {
        "cudnn_off": "True", 
        "cudnn_tune": "off", 
        "dilate": "(1, 1)", 
        "kernel": "(3, 3)", 
        "no_bias": "False", 
        "num_filter": "160", 
        "pad": "(1, 1)", 
        "stride": "(1, 1)"
      }, 
      "inputs": [[109, 0, 0], [110, 0, 0], [111, 0, 0]]
    }, 
    {
      "op": "MaskZero", 
      "name": "maskzero19", 
      "inputs": [[112, 0, 0], [5, 0, 0]]
    }, 
    {
      "op": "elemwise_add", 
      "name": "_plus7", 
      "inputs": [[102, 0, 0], [113, 0, 0]]
    }, 
    {
      "op": "LeakyReLU", 
      "name": "leakyrelu16", 
      "attrs": {"slope": "0.1"}, 
      "inputs": [[114, 0, 0]]
    }, 
    {
      "op": "null", 
      "name": "convolution20_weight", 
      "attrs": {
        "cudnn_off": "True", 
        "cudnn_tune": "off", 
        "dilate": "(1, 1)", 
        "kernel": "(3, 3)", 
        "no_bias": "False", 
        "num_filter": "160", 
        "pad": "(1, 1)", 
        "stride": "(1, 1)"
      }, 
      "inputs": []
    }, 
    {
      "op": "null", 
      "name": "convolution20_bias", 
      "attrs": {
        "cudnn_off": "True", 
        "cudnn_tune": "off", 
        "dilate": "(1, 1)", 
        "kernel": "(3, 3)", 
        "no_bias": "False", 
        "num_filter": "160", 
        "pad": "(1, 1)", 
        "stride": "(1, 1)"
      }, 
      "inputs": []
    }, 
    {
      "op": "Convolution", 
      "name": "convolution20", 
      "attrs": {
        "cudnn_off": "True", 
        "cudnn_tune": "off", 
        "dilate": "(1, 1)", 
        "kernel": "(3, 3)", 
        "no_bias": "False", 
        "num_filter": "160", 
        "pad": "(1, 1)", 
        "stride": "(1, 1)"
      }, 
      "inputs": [[115, 0, 0], [116, 0, 0], [117, 0, 0]]
    }, 
    {
      "op": "MaskZero", 
      "name": "maskzero20", 
      "inputs": [[118, 0, 0], [5, 0, 0]]
    }, 
    {
      "op": "LeakyReLU", 
      "name": "leakyrelu17", 
      "attrs": {"slope": "0.1"}, 
      "inputs": [[119, 0, 0]]
    }, 
    {
      "op": "Dropout", 
      "name": "dropout8", 
      "attrs": {
        "flag": "True", 
        "p": "0.1"
      }, 
      "inputs": [[120, 0, 0]]
    }, 
    {
      "op": "null", 
      "name": "convolution21_weight", 
      "attrs": {
        "cudnn_off": "True", 
        "cudnn_tune": "off", 
        "dilate": "(1, 1)", 
        "kernel": "(3, 3)", 
        "no_bias": "False", 
        "num_filter": "160", 
        "pad": "(1, 1)", 
        "stride": "(1, 1)"
      }, 
      "inputs": []
    }, 
    {
      "op": "null", 
      "name": "convolution21_bias", 
      "attrs": {
        "cudnn_off": "True", 
        "cudnn_tune": "off", 
        "dilate": "(1, 1)", 
        "kernel": "(3, 3)", 
        "no_bias": "False", 
        "num_filter": "160", 
        "pad": "(1, 1)", 
        "stride": "(1, 1)"
      }, 
      "inputs": []
    }, 
    {
      "op": "Convolution", 
      "name": "convolution21", 
      "attrs": {
        "cudnn_off": "True", 
        "cudnn_tune": "off", 
        "dilate": "(1, 1)", 
        "kernel": "(3, 3)", 
        "no_bias": "False", 
        "num_filter": "160", 
        "pad": "(1, 1)", 
        "stride": "(1, 1)"
      }, 
      "inputs": [[121, 0, 0], [122, 0, 0], [123, 0, 0]]
    }, 
    {
      "op": "MaskZero", 
      "name": "maskzero21", 
      "inputs": [[124, 0, 0], [5, 0, 0]]
    }, 
    {
      "op": "elemwise_add", 
      "name": "_plus8", 
      "inputs": [[114, 0, 0], [125, 0, 0]]
    }, 
    {
      "op": "LeakyReLU", 
      "name": "leakyrelu18", 
      "attrs": {"slope": "0.1"}, 
      "inputs": [[126, 0, 0]]
    }, 
    {
      "op": "null", 
      "name": "convolution22_weight", 
      "attrs": {
        "cudnn_off": "True", 
        "cudnn_tune": "off", 
        "dilate": "(1, 1)", 
        "kernel": "(3, 3)", 
        "no_bias": "False", 
        "num_filter": "160", 
        "pad": "(1, 1)", 
        "stride": "(1, 1)"
      }, 
      "inputs": []
    }, 
    {
      "op": "null", 
      "name": "convolution22_bias", 
      "attrs": {
        "cudnn_off": "True", 
        "cudnn_tune": "off", 
        "dilate": "(1, 1)", 
        "kernel": "(3, 3)", 
        "no_bias": "False", 
        "num_filter": "160", 
        "pad": "(1, 1)", 
        "stride": "(1, 1)"
      }, 
      "inputs": []
    }, 
    {
      "op": "Convolution", 
      "name": "convolution22", 
      "attrs": {
        "cudnn_off": "True", 
        "cudnn_tune": "off", 
        "dilate": "(1, 1)", 
        "kernel": "(3, 3)", 
        "no_bias": "False", 
        "num_filter": "160", 
        "pad": "(1, 1)", 
        "stride": "(1, 1)"
      }, 
      "inputs": [[127, 0, 0], [128, 0, 0], [129, 0, 0]]
    }, 
    {
      "op": "MaskZero", 
      "name": "maskzero22", 
      "inputs": [[130, 0, 0], [5, 0, 0]]
    }, 
    {
      "op": "LeakyReLU", 
      "name": "leakyrelu19", 
      "attrs": {"slope": "0.1"}, 
      "inputs": [[131, 0, 0]]
    }, 
    {
      "op": "Dropout", 
      "name": "dropout9", 
      "attrs": {
        "flag": "True", 
        "p": "0.1"
      }, 
      "inputs": [[132, 0, 0]]
    }, 
    {
      "op": "null", 
      "name": "convolution23_weight", 
      "attrs": {
        "cudnn_off": "True", 
        "cudnn_tune": "off", 
        "dilate": "(1, 1)", 
        "kernel": "(3, 3)", 
        "no_bias": "False", 
        "num_filter": "160", 
        "pad": "(1, 1)", 
        "stride": "(1, 1)"
      }, 
      "inputs": []
    }, 
    {
      "op": "null", 
      "name": "convolution23_bias", 
      "attrs": {
        "cudnn_off": "True", 
        "cudnn_tune": "off", 
        "dilate": "(1, 1)", 
        "kernel": "(3, 3)", 
        "no_bias": "False", 
        "num_filter": "160", 
        "pad": "(1, 1)", 
        "stride": "(1, 1)"
      }, 
      "inputs": []
    }, 
    {
      "op": "Convolution", 
      "name": "convolution23", 
      "attrs": {
        "cudnn_off": "True", 
        "cudnn_tune": "off", 
        "dilate": "(1, 1)", 
        "kernel": "(3, 3)", 
        "no_bias": "False", 
        "num_filter": "160", 
        "pad": "(1, 1)", 
        "stride": "(1, 1)"
      }, 
      "inputs": [[133, 0, 0], [134, 0, 0], [135, 0, 0]]
    }, 
    {
      "op": "MaskZero", 
      "name": "maskzero23", 
      "inputs": [[136, 0, 0], [5, 0, 0]]
    }, 
    {
      "op": "elemwise_add", 
      "name": "_plus9", 
      "inputs": [[126, 0, 0], [137, 0, 0]]
    }, 
    {
      "op": "LeakyReLU", 
      "name": "leakyrelu20", 
      "attrs": {"slope": "0.1"}, 
      "inputs": [[138, 0, 0]]
    }, 
    {
      "op": "null", 
      "name": "convolution24_weight", 
      "attrs": {
        "cudnn_off": "True", 
        "cudnn_tune": "off", 
        "dilate": "(1, 1)", 
        "kernel": "(3, 3)", 
        "no_bias": "False", 
        "num_filter": "160", 
        "pad": "(1, 1)", 
        "stride": "(1, 1)"
      }, 
      "inputs": []
    }, 
    {
      "op": "null", 
      "name": "convolution24_bias", 
      "attrs": {
        "cudnn_off": "True", 
        "cudnn_tune": "off", 
        "dilate": "(1, 1)", 
        "kernel": "(3, 3)", 
        "no_bias": "False", 
        "num_filter": "160", 
        "pad": "(1, 1)", 
        "stride": "(1, 1)"
      }, 
      "inputs": []
    }, 
    {
      "op": "Convolution", 
      "name": "convolution24", 
      "attrs": {
        "cudnn_off": "True", 
        "cudnn_tune": "off", 
        "dilate": "(1, 1)", 
        "kernel": "(3, 3)", 
        "no_bias": "False", 
        "num_filter": "160", 
        "pad": "(1, 1)", 
        "stride": "(1, 1)"
      }, 
      "inputs": [[139, 0, 0], [140, 0, 0], [141, 0, 0]]
    }, 
    {
      "op": "MaskZero", 
      "name": "maskzero24", 
      "inputs": [[142, 0, 0], [5, 0, 0]]
    }, 
    {
      "op": "LeakyReLU", 
      "name": "leakyrelu21", 
      "attrs": {"slope": "0.1"}, 
      "inputs": [[143, 0, 0]]
    }, 
    {
      "op": "Dropout", 
      "name": "dropout10", 
      "attrs": {
        "flag": "True", 
        "p": "0.1"
      }, 
      "inputs": [[144, 0, 0]]
    }, 
    {
      "op": "null", 
      "name": "convolution25_weight", 
      "attrs": {
        "cudnn_off": "True", 
        "cudnn_tune": "off", 
        "dilate": "(1, 1)", 
        "kernel": "(3, 3)", 
        "no_bias": "False", 
        "num_filter": "160", 
        "pad": "(1, 1)", 
        "stride": "(1, 1)"
      }, 
      "inputs": []
    }, 
    {
      "op": "null", 
      "name": "convolution25_bias", 
      "attrs": {
        "cudnn_off": "True", 
        "cudnn_tune": "off", 
        "dilate": "(1, 1)", 
        "kernel": "(3, 3)", 
        "no_bias": "False", 
        "num_filter": "160", 
        "pad": "(1, 1)", 
        "stride": "(1, 1)"
      }, 
      "inputs": []
    }, 
    {
      "op": "Convolution", 
      "name": "convolution25", 
      "attrs": {
        "cudnn_off": "True", 
        "cudnn_tune": "off", 
        "dilate": "(1, 1)", 
        "kernel": "(3, 3)", 
        "no_bias": "False", 
        "num_filter": "160", 
        "pad": "(1, 1)", 
        "stride": "(1, 1)"
      }, 
      "inputs": [[145, 0, 0], [146, 0, 0], [147, 0, 0]]
    }, 
    {
      "op": "MaskZero", 
      "name": "maskzero25", 
      "inputs": [[148, 0, 0], [5, 0, 0]]
    }, 
    {
      "op": "elemwise_add", 
      "name": "_plus10", 
      "inputs": [[138, 0, 0], [149, 0, 0]]
    }, 
    {
      "op": "LeakyReLU", 
      "name": "leakyrelu22", 
      "attrs": {"slope": "0.1"}, 
      "inputs": [[150, 0, 0]]
    }, 
    {
      "op": "null", 
      "name": "convolution26_weight", 
      "attrs": {
        "cudnn_off": "True", 
        "cudnn_tune": "off", 
        "dilate": "(1, 1)", 
        "kernel": "(3, 3)", 
        "no_bias": "False", 
        "num_filter": "160", 
        "pad": "(1, 1)", 
        "stride": "(1, 1)"
      }, 
      "inputs": []
    }, 
    {
      "op": "null", 
      "name": "convolution26_bias", 
      "attrs": {
        "cudnn_off": "True", 
        "cudnn_tune": "off", 
        "dilate": "(1, 1)", 
        "kernel": "(3, 3)", 
        "no_bias": "False", 
        "num_filter": "160", 
        "pad": "(1, 1)", 
        "stride": "(1, 1)"
      }, 
      "inputs": []
    }, 
    {
      "op": "Convolution", 
      "name": "convolution26", 
      "attrs": {
        "cudnn_off": "True", 
        "cudnn_tune": "off", 
        "dilate": "(1, 1)", 
        "kernel": "(3, 3)", 
        "no_bias": "False", 
        "num_filter": "160", 
        "pad": "(1, 1)", 
        "stride": "(1, 1)"
      }, 
      "inputs": [[151, 0, 0], [152, 0, 0], [153, 0, 0]]
    }, 
    {
      "op": "MaskZero", 
      "name": "maskzero26", 
      "inputs": [[154, 0, 0], [5, 0, 0]]
    }, 
    {
      "op": "LeakyReLU", 
      "name": "leakyrelu23", 
      "attrs": {"slope": "0.1"}, 
      "inputs": [[155, 0, 0]]
    }, 
    {
      "op": "Dropout", 
      "name": "dropout11", 
      "attrs": {
        "flag": "True", 
        "p": "0.1"
      }, 
      "inputs": [[156, 0, 0]]
    }, 
    {
      "op": "null", 
      "name": "convolution27_weight", 
      "attrs": {
        "cudnn_off": "True", 
        "cudnn_tune": "off", 
        "dilate": "(1, 1)", 
        "kernel": "(3, 3)", 
        "no_bias": "False", 
        "num_filter": "160", 
        "pad": "(1, 1)", 
        "stride": "(1, 1)"
      }, 
      "inputs": []
    }, 
    {
      "op": "null", 
      "name": "convolution27_bias", 
      "attrs": {
        "cudnn_off": "True", 
        "cudnn_tune": "off", 
        "dilate": "(1, 1)", 
        "kernel": "(3, 3)", 
        "no_bias": "False", 
        "num_filter": "160", 
        "pad": "(1, 1)", 
        "stride": "(1, 1)"
      }, 
      "inputs": []
    }, 
    {
      "op": "Convolution", 
      "name": "convolution27", 
      "attrs": {
        "cudnn_off": "True", 
        "cudnn_tune": "off", 
        "dilate": "(1, 1)", 
        "kernel": "(3, 3)", 
        "no_bias": "False", 
        "num_filter": "160", 
        "pad": "(1, 1)", 
        "stride": "(1, 1)"
      }, 
      "inputs": [[157, 0, 0], [158, 0, 0], [159, 0, 0]]
    }, 
    {
      "op": "MaskZero", 
      "name": "maskzero27", 
      "inputs": [[160, 0, 0], [5, 0, 0]]
    }, 
    {
      "op": "elemwise_add", 
      "name": "_plus11", 
      "inputs": [[150, 0, 0], [161, 0, 0]]
    }, 
    {
      "op": "LeakyReLU", 
      "name": "leakyrelu24", 
      "attrs": {"slope": "0.1"}, 
      "inputs": [[162, 0, 0]]
    }, 
    {
      "op": "null", 
      "name": "convolution28_weight", 
      "attrs": {
        "cudnn_off": "True", 
        "cudnn_tune": "off", 
        "dilate": "(1, 1)", 
        "kernel": "(3, 3)", 
        "no_bias": "False", 
        "num_filter": "160", 
        "pad": "(1, 1)", 
        "stride": "(1, 1)"
      }, 
      "inputs": []
    }, 
    {
      "op": "null", 
      "name": "convolution28_bias", 
      "attrs": {
        "cudnn_off": "True", 
        "cudnn_tune": "off", 
        "dilate": "(1, 1)", 
        "kernel": "(3, 3)", 
        "no_bias": "False", 
        "num_filter": "160", 
        "pad": "(1, 1)", 
        "stride": "(1, 1)"
      }, 
      "inputs": []
    }, 
    {
      "op": "Convolution", 
      "name": "convolution28", 
      "attrs": {
        "cudnn_off": "True", 
        "cudnn_tune": "off", 
        "dilate": "(1, 1)", 
        "kernel": "(3, 3)", 
        "no_bias": "False", 
        "num_filter": "160", 
        "pad": "(1, 1)", 
        "stride": "(1, 1)"
      }, 
      "inputs": [[163, 0, 0], [164, 0, 0], [165, 0, 0]]
    }, 
    {
      "op": "MaskZero", 
      "name": "maskzero28", 
      "inputs": [[166, 0, 0], [5, 0, 0]]
    }, 
    {
      "op": "LeakyReLU", 
      "name": "leakyrelu25", 
      "attrs": {"slope": "0.1"}, 
      "inputs": [[167, 0, 0]]
    }, 
    {
      "op": "Dropout", 
      "name": "dropout12", 
      "attrs": {
        "flag": "True", 
        "p": "0.1"
      }, 
      "inputs": [[168, 0, 0]]
    }, 
    {
      "op": "null", 
      "name": "convolution29_weight", 
      "attrs": {
        "cudnn_off": "True", 
        "cudnn_tune": "off", 
        "dilate": "(1, 1)", 
        "kernel": "(3, 3)", 
        "no_bias": "False", 
        "num_filter": "160", 
        "pad": "(1, 1)", 
        "stride": "(1, 1)"
      }, 
      "inputs": []
    }, 
    {
      "op": "null", 
      "name": "convolution29_bias", 
      "attrs": {
        "cudnn_off": "True", 
        "cudnn_tune": "off", 
        "dilate": "(1, 1)", 
        "kernel": "(3, 3)", 
        "no_bias": "False", 
        "num_filter": "160", 
        "pad": "(1, 1)", 
        "stride": "(1, 1)"
      }, 
      "inputs": []
    }, 
    {
      "op": "Convolution", 
      "name": "convolution29", 
      "attrs": {
        "cudnn_off": "True", 
        "cudnn_tune": "off", 
        "dilate": "(1, 1)", 
        "kernel": "(3, 3)", 
        "no_bias": "False", 
        "num_filter": "160", 
        "pad": "(1, 1)", 
        "stride": "(1, 1)"
      }, 
      "inputs": [[169, 0, 0], [170, 0, 0], [171, 0, 0]]
    }, 
    {
      "op": "MaskZero", 
      "name": "maskzero29", 
      "inputs": [[172, 0, 0], [5, 0, 0]]
    }, 
    {
      "op": "elemwise_add", 
      "name": "_plus12", 
      "inputs": [[162, 0, 0], [173, 0, 0]]
    }, 
    {
      "op": "LeakyReLU", 
      "name": "leakyrelu26", 
      "attrs": {"slope": "0.1"}, 
      "inputs": [[174, 0, 0]]
    }, 
    {
      "op": "null", 
      "name": "convolution30_weight", 
      "attrs": {
        "cudnn_off": "True", 
        "cudnn_tune": "off", 
        "dilate": "(1, 1)", 
        "kernel": "(3, 3)", 
        "no_bias": "False", 
        "num_filter": "160", 
        "pad": "(1, 1)", 
        "stride": "(1, 1)"
      }, 
      "inputs": []
    }, 
    {
      "op": "null", 
      "name": "convolution30_bias", 
      "attrs": {
        "cudnn_off": "True", 
        "cudnn_tune": "off", 
        "dilate": "(1, 1)", 
        "kernel": "(3, 3)", 
        "no_bias": "False", 
        "num_filter": "160", 
        "pad": "(1, 1)", 
        "stride": "(1, 1)"
      }, 
      "inputs": []
    }, 
    {
      "op": "Convolution", 
      "name": "convolution30", 
      "attrs": {
        "cudnn_off": "True", 
        "cudnn_tune": "off", 
        "dilate": "(1, 1)", 
        "kernel": "(3, 3)", 
        "no_bias": "False", 
        "num_filter": "160", 
        "pad": "(1, 1)", 
        "stride": "(1, 1)"
      }, 
      "inputs": [[175, 0, 0], [176, 0, 0], [177, 0, 0]]
    }, 
    {
      "op": "MaskZero", 
      "name": "maskzero30", 
      "inputs": [[178, 0, 0], [5, 0, 0]]
    }, 
    {
      "op": "LeakyReLU", 
      "name": "leakyrelu27", 
      "attrs": {"slope": "0.1"}, 
      "inputs": [[179, 0, 0]]
    }, 
    {
      "op": "Dropout", 
      "name": "dropout13", 
      "attrs": {
        "flag": "True", 
        "p": "0.1"
      }, 
      "inputs": [[180, 0, 0]]
    }, 
    {
      "op": "null", 
      "name": "convolution31_weight", 
      "attrs": {
        "cudnn_off": "True", 
        "cudnn_tune": "off", 
        "dilate": "(1, 1)", 
        "kernel": "(3, 3)", 
        "no_bias": "False", 
        "num_filter": "160", 
        "pad": "(1, 1)", 
        "stride": "(1, 1)"
      }, 
      "inputs": []
    }, 
    {
      "op": "null", 
      "name": "convolution31_bias", 
      "attrs": {
        "cudnn_off": "True", 
        "cudnn_tune": "off", 
        "dilate": "(1, 1)", 
        "kernel": "(3, 3)", 
        "no_bias": "False", 
        "num_filter": "160", 
        "pad": "(1, 1)", 
        "stride": "(1, 1)"
      }, 
      "inputs": []
    }, 
    {
      "op": "Convolution", 
      "name": "convolution31", 
      "attrs": {
        "cudnn_off": "True", 
        "cudnn_tune": "off", 
        "dilate": "(1, 1)", 
        "kernel": "(3, 3)", 
        "no_bias": "False", 
        "num_filter": "160", 
        "pad": "(1, 1)", 
        "stride": "(1, 1)"
      }, 
      "inputs": [[181, 0, 0], [182, 0, 0], [183, 0, 0]]
    }, 
    {
      "op": "MaskZero", 
      "name": "maskzero31", 
      "inputs": [[184, 0, 0], [5, 0, 0]]
    }, 
    {
      "op": "elemwise_add", 
      "name": "_plus13", 
      "inputs": [[174, 0, 0], [185, 0, 0]]
    }, 
    {
      "op": "LeakyReLU", 
      "name": "leakyrelu28", 
      "attrs": {"slope": "0.1"}, 
      "inputs": [[186, 0, 0]]
    }, 
    {
      "op": "null", 
      "name": "convolution32_weight", 
      "attrs": {
        "cudnn_off": "True", 
        "cudnn_tune": "off", 
        "dilate": "(1, 1)", 
        "kernel": "(3, 3)", 
        "no_bias": "False", 
        "num_filter": "160", 
        "pad": "(1, 1)", 
        "stride": "(1, 1)"
      }, 
      "inputs": []
    }, 
    {
      "op": "null", 
      "name": "convolution32_bias", 
      "attrs": {
        "cudnn_off": "True", 
        "cudnn_tune": "off", 
        "dilate": "(1, 1)", 
        "kernel": "(3, 3)", 
        "no_bias": "False", 
        "num_filter": "160", 
        "pad": "(1, 1)", 
        "stride": "(1, 1)"
      }, 
      "inputs": []
    }, 
    {
      "op": "Convolution", 
      "name": "convolution32", 
      "attrs": {
        "cudnn_off": "True", 
        "cudnn_tune": "off", 
        "dilate": "(1, 1)", 
        "kernel": "(3, 3)", 
        "no_bias": "False", 
        "num_filter": "160", 
        "pad": "(1, 1)", 
        "stride": "(1, 1)"
      }, 
      "inputs": [[187, 0, 0], [188, 0, 0], [189, 0, 0]]
    }, 
    {
      "op": "MaskZero", 
      "name": "maskzero32", 
      "inputs": [[190, 0, 0], [5, 0, 0]]
    }, 
    {
      "op": "LeakyReLU", 
      "name": "leakyrelu29", 
      "attrs": {"slope": "0.1"}, 
      "inputs": [[191, 0, 0]]
    }, 
    {
      "op": "Dropout", 
      "name": "dropout14", 
      "attrs": {
        "flag": "True", 
        "p": "0.1"
      }, 
      "inputs": [[192, 0, 0]]
    }, 
    {
      "op": "null", 
      "name": "convolution33_weight", 
      "attrs": {
        "cudnn_off": "True", 
        "cudnn_tune": "off", 
        "dilate": "(1, 1)", 
        "kernel": "(3, 3)", 
        "no_bias": "False", 
        "num_filter": "160", 
        "pad": "(1, 1)", 
        "stride": "(1, 1)"
      }, 
      "inputs": []
    }, 
    {
      "op": "null", 
      "name": "convolution33_bias", 
      "attrs": {
        "cudnn_off": "True", 
        "cudnn_tune": "off", 
        "dilate": "(1, 1)", 
        "kernel": "(3, 3)", 
        "no_bias": "False", 
        "num_filter": "160", 
        "pad": "(1, 1)", 
        "stride": "(1, 1)"
      }, 
      "inputs": []
    }, 
    {
      "op": "Convolution", 
      "name": "convolution33", 
      "attrs": {
        "cudnn_off": "True", 
        "cudnn_tune": "off", 
        "dilate": "(1, 1)", 
        "kernel": "(3, 3)", 
        "no_bias": "False", 
        "num_filter": "160", 
        "pad": "(1, 1)", 
        "stride": "(1, 1)"
      }, 
      "inputs": [[193, 0, 0], [194, 0, 0], [195, 0, 0]]
    }, 
    {
      "op": "MaskZero", 
      "name": "maskzero33", 
      "inputs": [[196, 0, 0], [5, 0, 0]]
    }, 
    {
      "op": "elemwise_add", 
      "name": "_plus14", 
      "inputs": [[186, 0, 0], [197, 0, 0]]
    }, 
    {
      "op": "LeakyReLU", 
      "name": "leakyrelu30", 
      "attrs": {"slope": "0.1"}, 
      "inputs": [[198, 0, 0]]
    }, 
    {
      "op": "null", 
      "name": "convolution34_weight", 
      "attrs": {
        "cudnn_off": "True", 
        "cudnn_tune": "off", 
        "dilate": "(1, 1)", 
        "kernel": "(3, 3)", 
        "no_bias": "False", 
        "num_filter": "160", 
        "pad": "(1, 1)", 
        "stride": "(1, 1)"
      }, 
      "inputs": []
    }, 
    {
      "op": "null", 
      "name": "convolution34_bias", 
      "attrs": {
        "cudnn_off": "True", 
        "cudnn_tune": "off", 
        "dilate": "(1, 1)", 
        "kernel": "(3, 3)", 
        "no_bias": "False", 
        "num_filter": "160", 
        "pad": "(1, 1)", 
        "stride": "(1, 1)"
      }, 
      "inputs": []
    }, 
    {
      "op": "Convolution", 
      "name": "convolution34", 
      "attrs": {
        "cudnn_off": "True", 
        "cudnn_tune": "off", 
        "dilate": "(1, 1)", 
        "kernel": "(3, 3)", 
        "no_bias": "False", 
        "num_filter": "160", 
        "pad": "(1, 1)", 
        "stride": "(1, 1)"
      }, 
      "inputs": [[199, 0, 0], [200, 0, 0], [201, 0, 0]]
    }, 
    {
      "op": "MaskZero", 
      "name": "maskzero34", 
      "inputs": [[202, 0, 0], [5, 0, 0]]
    }, 
    {
      "op": "LeakyReLU", 
      "name": "leakyrelu31", 
      "attrs": {"slope": "0.1"}, 
      "inputs": [[203, 0, 0]]
    }, 
    {
      "op": "Dropout", 
      "name": "dropout15", 
      "attrs": {
        "flag": "True", 
        "p": "0.1"
      }, 
      "inputs": [[204, 0, 0]]
    }, 
    {
      "op": "null", 
      "name": "convolution35_weight", 
      "attrs": {
        "cudnn_off": "True", 
        "cudnn_tune": "off", 
        "dilate": "(1, 1)", 
        "kernel": "(3, 3)", 
        "no_bias": "False", 
        "num_filter": "160", 
        "pad": "(1, 1)", 
        "stride": "(1, 1)"
      }, 
      "inputs": []
    }, 
    {
      "op": "null", 
      "name": "convolution35_bias", 
      "attrs": {
        "cudnn_off": "True", 
        "cudnn_tune": "off", 
        "dilate": "(1, 1)", 
        "kernel": "(3, 3)", 
        "no_bias": "False", 
        "num_filter": "160", 
        "pad": "(1, 1)", 
        "stride": "(1, 1)"
      }, 
      "inputs": []
    }, 
    {
      "op": "Convolution", 
      "name": "convolution35", 
      "attrs": {
        "cudnn_off": "True", 
        "cudnn_tune": "off", 
        "dilate": "(1, 1)", 
        "kernel": "(3, 3)", 
        "no_bias": "False", 
        "num_filter": "160", 
        "pad": "(1, 1)", 
        "stride": "(1, 1)"
      }, 
      "inputs": [[205, 0, 0], [206, 0, 0], [207, 0, 0]]
    }, 
    {
      "op": "MaskZero", 
      "name": "maskzero35", 
      "inputs": [[208, 0, 0], [5, 0, 0]]
    }, 
    {
      "op": "elemwise_add", 
      "name": "_plus15", 
      "inputs": [[198, 0, 0], [209, 0, 0]]
    }, 
    {
      "op": "LeakyReLU", 
      "name": "leakyrelu32", 
      "attrs": {"slope": "0.1"}, 
      "inputs": [[210, 0, 0]]
    }, 
    {
      "op": "null", 
      "name": "convolution36_weight", 
      "attrs": {
        "cudnn_off": "True", 
        "cudnn_tune": "off", 
        "dilate": "(1, 1)", 
        "kernel": "(3, 3)", 
        "no_bias": "False", 
        "num_filter": "160", 
        "pad": "(1, 1)", 
        "stride": "(1, 1)"
      }, 
      "inputs": []
    }, 
    {
      "op": "null", 
      "name": "convolution36_bias", 
      "attrs": {
        "cudnn_off": "True", 
        "cudnn_tune": "off", 
        "dilate": "(1, 1)", 
        "kernel": "(3, 3)", 
        "no_bias": "False", 
        "num_filter": "160", 
        "pad": "(1, 1)", 
        "stride": "(1, 1)"
      }, 
      "inputs": []
    }, 
    {
      "op": "Convolution", 
      "name": "convolution36", 
      "attrs": {
        "cudnn_off": "True", 
        "cudnn_tune": "off", 
        "dilate": "(1, 1)", 
        "kernel": "(3, 3)", 
        "no_bias": "False", 
        "num_filter": "160", 
        "pad": "(1, 1)", 
        "stride": "(1, 1)"
      }, 
      "inputs": [[211, 0, 0], [212, 0, 0], [213, 0, 0]]
    }, 
    {
      "op": "MaskZero", 
      "name": "maskzero36", 
      "inputs": [[214, 0, 0], [5, 0, 0]]
    }, 
    {
      "op": "LeakyReLU", 
      "name": "leakyrelu33", 
      "attrs": {"slope": "0.1"}, 
      "inputs": [[215, 0, 0]]
    }, 
    {
      "op": "Dropout", 
      "name": "dropout16", 
      "attrs": {
        "flag": "True", 
        "p": "0.1"
      }, 
      "inputs": [[216, 0, 0]]
    }, 
    {
      "op": "null", 
      "name": "convolution37_weight", 
      "attrs": {
        "cudnn_off": "True", 
        "cudnn_tune": "off", 
        "dilate": "(1, 1)", 
        "kernel": "(3, 3)", 
        "no_bias": "False", 
        "num_filter": "160", 
        "pad": "(1, 1)", 
        "stride": "(1, 1)"
      }, 
      "inputs": []
    }, 
    {
      "op": "null", 
      "name": "convolution37_bias", 
      "attrs": {
        "cudnn_off": "True", 
        "cudnn_tune": "off", 
        "dilate": "(1, 1)", 
        "kernel": "(3, 3)", 
        "no_bias": "False", 
        "num_filter": "160", 
        "pad": "(1, 1)", 
        "stride": "(1, 1)"
      }, 
      "inputs": []
    }, 
    {
      "op": "Convolution", 
      "name": "convolution37", 
      "attrs": {
        "cudnn_off": "True", 
        "cudnn_tune": "off", 
        "dilate": "(1, 1)", 
        "kernel": "(3, 3)", 
        "no_bias": "False", 
        "num_filter": "160", 
        "pad": "(1, 1)", 
        "stride": "(1, 1)"
      }, 
      "inputs": [[217, 0, 0], [218, 0, 0], [219, 0, 0]]
    }, 
    {
      "op": "MaskZero", 
      "name": "maskzero37", 
      "inputs": [[220, 0, 0], [5, 0, 0]]
    }, 
    {
      "op": "elemwise_add", 
      "name": "_plus16", 
      "inputs": [[210, 0, 0], [221, 0, 0]]
    }, 
    {
      "op": "LeakyReLU", 
      "name": "leakyrelu34", 
      "attrs": {"slope": "0.1"}, 
      "inputs": [[222, 0, 0]]
    }, 
    {
      "op": "null", 
      "name": "convolution38_weight", 
      "attrs": {
        "cudnn_off": "True", 
        "cudnn_tune": "off", 
        "dilate": "(1, 1)", 
        "kernel": "(3, 3)", 
        "no_bias": "False", 
        "num_filter": "160", 
        "pad": "(1, 1)", 
        "stride": "(1, 1)"
      }, 
      "inputs": []
    }, 
    {
      "op": "null", 
      "name": "convolution38_bias", 
      "attrs": {
        "cudnn_off": "True", 
        "cudnn_tune": "off", 
        "dilate": "(1, 1)", 
        "kernel": "(3, 3)", 
        "no_bias": "False", 
        "num_filter": "160", 
        "pad": "(1, 1)", 
        "stride": "(1, 1)"
      }, 
      "inputs": []
    }, 
    {
      "op": "Convolution", 
      "name": "convolution38", 
      "attrs": {
        "cudnn_off": "True", 
        "cudnn_tune": "off", 
        "dilate": "(1, 1)", 
        "kernel": "(3, 3)", 
        "no_bias": "False", 
        "num_filter": "160", 
        "pad": "(1, 1)", 
        "stride": "(1, 1)"
      }, 
      "inputs": [[223, 0, 0], [224, 0, 0], [225, 0, 0]]
    }, 
    {
      "op": "MaskZero", 
      "name": "maskzero38", 
      "inputs": [[226, 0, 0], [5, 0, 0]]
    }, 
    {
      "op": "LeakyReLU", 
      "name": "leakyrelu35", 
      "attrs": {"slope": "0.1"}, 
      "inputs": [[227, 0, 0]]
    }, 
    {
      "op": "Dropout", 
      "name": "dropout17", 
      "attrs": {
        "flag": "True", 
        "p": "0.1"
      }, 
      "inputs": [[228, 0, 0]]
    }, 
    {
      "op": "null", 
      "name": "convolution39_weight", 
      "attrs": {
        "cudnn_off": "True", 
        "cudnn_tune": "off", 
        "dilate": "(1, 1)", 
        "kernel": "(3, 3)", 
        "no_bias": "False", 
        "num_filter": "160", 
        "pad": "(1, 1)", 
        "stride": "(1, 1)"
      }, 
      "inputs": []
    }, 
    {
      "op": "null", 
      "name": "convolution39_bias", 
      "attrs": {
        "cudnn_off": "True", 
        "cudnn_tune": "off", 
        "dilate": "(1, 1)", 
        "kernel": "(3, 3)", 
        "no_bias": "False", 
        "num_filter": "160", 
        "pad": "(1, 1)", 
        "stride": "(1, 1)"
      }, 
      "inputs": []
    }, 
    {
      "op": "Convolution", 
      "name": "convolution39", 
      "attrs": {
        "cudnn_off": "True", 
        "cudnn_tune": "off", 
        "dilate": "(1, 1)", 
        "kernel": "(3, 3)", 
        "no_bias": "False", 
        "num_filter": "160", 
        "pad": "(1, 1)", 
        "stride": "(1, 1)"
      }, 
      "inputs": [[229, 0, 0], [230, 0, 0], [231, 0, 0]]
    }, 
    {
      "op": "MaskZero", 
      "name": "maskzero39", 
      "inputs": [[232, 0, 0], [5, 0, 0]]
    }, 
    {
      "op": "elemwise_add", 
      "name": "_plus17", 
      "inputs": [[222, 0, 0], [233, 0, 0]]
    }, 
    {
      "op": "null", 
      "name": "convolution40_weight", 
      "attrs": {
        "cudnn_off": "True", 
        "cudnn_tune": "off", 
        "dilate": "(1, 1)", 
        "kernel": "(2, 1)", 
        "no_bias": "True", 
        "num_filter": "256", 
        "pad": "(0, 0)", 
        "stride": "(2, 1)"
      }, 
      "inputs": []
    }, 
    {
      "op": "Convolution", 
      "name": "convolution40", 
      "attrs": {
        "cudnn_off": "True", 
        "cudnn_tune": "off", 
        "dilate": "(1, 1)", 
        "kernel": "(2, 1)", 
        "no_bias": "True", 
        "num_filter": "256", 
        "pad": "(0, 0)", 
        "stride": "(2, 1)"
      }, 
      "inputs": [[234, 0, 0], [235, 0, 0]]
    }, 
    {
      "op": "MaskZero", 
      "name": "maskzero40", 
      "inputs": [[236, 0, 0], [5, 0, 0]]
    }, 
    {
      "op": "LeakyReLU", 
      "name": "leakyrelu36", 
      "attrs": {"slope": "0.1"}, 
      "inputs": [[234, 0, 0]]
    }, 
    {
      "op": "Pooling", 
      "name": "pooling3", 
      "attrs": {
        "kernel": "(2, 1)", 
        "pool_type": "max", 
        "stride": "(2, 1)"
      }, 
      "inputs": [[238, 0, 0]]
    }, 
    {
      "op": "null", 
      "name": "convolution41_weight", 
      "attrs": {
        "cudnn_off": "True", 
        "cudnn_tune": "off", 
        "dilate": "(1, 1)", 
        "kernel": "(3, 3)", 
        "no_bias": "False", 
        "num_filter": "256", 
        "pad": "(1, 1)", 
        "stride": "(1, 1)"
      }, 
      "inputs": []
    }, 
    {
      "op": "null", 
      "name": "convolution41_bias", 
      "attrs": {
        "cudnn_off": "True", 
        "cudnn_tune": "off", 
        "dilate": "(1, 1)", 
        "kernel": "(3, 3)", 
        "no_bias": "False", 
        "num_filter": "256", 
        "pad": "(1, 1)", 
        "stride": "(1, 1)"
      }, 
      "inputs": []
    }, 
    {
      "op": "Convolution", 
      "name": "convolution41", 
      "attrs": {
        "cudnn_off": "True", 
        "cudnn_tune": "off", 
        "dilate": "(1, 1)", 
        "kernel": "(3, 3)", 
        "no_bias": "False", 
        "num_filter": "256", 
        "pad": "(1, 1)", 
        "stride": "(1, 1)"
      }, 
      "inputs": [[239, 0, 0], [240, 0, 0], [241, 0, 0]]
    }, 
    {
      "op": "MaskZero", 
      "name": "maskzero41", 
      "inputs": [[242, 0, 0], [5, 0, 0]]
    }, 
    {
      "op": "LeakyReLU", 
      "name": "leakyrelu37", 
      "attrs": {"slope": "0.1"}, 
      "inputs": [[243, 0, 0]]
    }, 
    {
      "op": "Dropout", 
      "name": "dropout18", 
      "attrs": {
        "flag": "True", 
        "p": "0.1"
      }, 
      "inputs": [[244, 0, 0]]
    }, 
    {
      "op": "null", 
      "name": "convolution42_weight", 
      "attrs": {
        "cudnn_off": "True", 
        "cudnn_tune": "off", 
        "dilate": "(1, 1)", 
        "kernel": "(3, 3)", 
        "no_bias": "False", 
        "num_filter": "256", 
        "pad": "(1, 1)", 
        "stride": "(1, 1)"
      }, 
      "inputs": []
    }, 
    {
      "op": "null", 
      "name": "convolution42_bias", 
      "attrs": {
        "cudnn_off": "True", 
        "cudnn_tune": "off", 
        "dilate": "(1, 1)", 
        "kernel": "(3, 3)", 
        "no_bias": "False", 
        "num_filter": "256", 
        "pad": "(1, 1)", 
        "stride": "(1, 1)"
      }, 
      "inputs": []
    }, 
    {
      "op": "Convolution", 
      "name": "convolution42", 
      "attrs": {
        "cudnn_off": "True", 
        "cudnn_tune": "off", 
        "dilate": "(1, 1)", 
        "kernel": "(3, 3)", 
        "no_bias": "False", 
        "num_filter": "256", 
        "pad": "(1, 1)", 
        "stride": "(1, 1)"
      }, 
      "inputs": [[245, 0, 0], [246, 0, 0], [247, 0, 0]]
    }, 
    {
      "op": "MaskZero", 
      "name": "maskzero42", 
      "inputs": [[248, 0, 0], [5, 0, 0]]
    }, 
    {
      "op": "elemwise_add", 
      "name": "_plus18", 
      "inputs": [[237, 0, 0], [249, 0, 0]]
    }, 
    {
      "op": "LeakyReLU", 
      "name": "leakyrelu38", 
      "attrs": {"slope": "0.1"}, 
      "inputs": [[250, 0, 0]]
    }, 
    {
      "op": "null", 
      "name": "convolution43_weight", 
      "attrs": {
        "cudnn_off": "True", 
        "cudnn_tune": "off", 
        "dilate": "(1, 1)", 
        "kernel": "(3, 3)", 
        "no_bias": "False", 
        "num_filter": "256", 
        "pad": "(1, 1)", 
        "stride": "(1, 1)"
      }, 
      "inputs": []
    }, 
    {
      "op": "null", 
      "name": "convolution43_bias", 
      "attrs": {
        "cudnn_off": "True", 
        "cudnn_tune": "off", 
        "dilate": "(1, 1)", 
        "kernel": "(3, 3)", 
        "no_bias": "False", 
        "num_filter": "256", 
        "pad": "(1, 1)", 
        "stride": "(1, 1)"
      }, 
      "inputs": []
    }, 
    {
      "op": "Convolution", 
      "name": "convolution43", 
      "attrs": {
        "cudnn_off": "True", 
        "cudnn_tune": "off", 
        "dilate": "(1, 1)", 
        "kernel": "(3, 3)", 
        "no_bias": "False", 
        "num_filter": "256", 
        "pad": "(1, 1)", 
        "stride": "(1, 1)"
      }, 
      "inputs": [[251, 0, 0], [252, 0, 0], [253, 0, 0]]
    }, 
    {
      "op": "MaskZero", 
      "name": "maskzero43", 
      "inputs": [[254, 0, 0], [5, 0, 0]]
    }, 
    {
      "op": "LeakyReLU", 
      "name": "leakyrelu39", 
      "attrs": {"slope": "0.1"}, 
      "inputs": [[255, 0, 0]]
    }, 
    {
      "op": "Dropout", 
      "name": "dropout19", 
      "attrs": {
        "flag": "True", 
        "p": "0.1"
      }, 
      "inputs": [[256, 0, 0]]
    }, 
    {
      "op": "null", 
      "name": "convolution44_weight", 
      "attrs": {
        "cudnn_off": "True", 
        "cudnn_tune": "off", 
        "dilate": "(1, 1)", 
        "kernel": "(3, 3)", 
        "no_bias": "False", 
        "num_filter": "256", 
        "pad": "(1, 1)", 
        "stride": "(1, 1)"
      }, 
      "inputs": []
    }, 
    {
      "op": "null", 
      "name": "convolution44_bias", 
      "attrs": {
        "cudnn_off": "True", 
        "cudnn_tune": "off", 
        "dilate": "(1, 1)", 
        "kernel": "(3, 3)", 
        "no_bias": "False", 
        "num_filter": "256", 
        "pad": "(1, 1)", 
        "stride": "(1, 1)"
      }, 
      "inputs": []
    }, 
    {
      "op": "Convolution", 
      "name": "convolution44", 
      "attrs": {
        "cudnn_off": "True", 
        "cudnn_tune": "off", 
        "dilate": "(1, 1)", 
        "kernel": "(3, 3)", 
        "no_bias": "False", 
        "num_filter": "256", 
        "pad": "(1, 1)", 
        "stride": "(1, 1)"
      }, 
      "inputs": [[257, 0, 0], [258, 0, 0], [259, 0, 0]]
    }, 
    {
      "op": "MaskZero", 
      "name": "maskzero44", 
      "inputs": [[260, 0, 0], [5, 0, 0]]
    }, 
    {
      "op": "elemwise_add", 
      "name": "_plus19", 
      "inputs": [[250, 0, 0], [261, 0, 0]]
    }, 
    {
      "op": "LeakyReLU", 
      "name": "leakyrelu40", 
      "attrs": {"slope": "0.1"}, 
      "inputs": [[262, 0, 0]]
    }, 
    {
      "op": "null", 
      "name": "deconvolution0_weight", 
      "attrs": {
        "kernel": "(1, 2)", 
        "num_filter": "256", 
        "pad": "(0, 0)", 
        "stride": "(1, 2)"
      }, 
      "inputs": []
    }, 
    {
      "op": "Deconvolution", 
      "name": "deconvolution0", 
      "attrs": {
        "kernel": "(1, 2)", 
        "num_filter": "256", 
        "pad": "(0, 0)", 
        "stride": "(1, 2)"
      }, 
      "inputs": [[263, 0, 0], [264, 0, 0]]
    }, 
    {
      "op": "MaskZero", 
      "name": "maskzero45", 
      "inputs": [[265, 0, 0], [5, 0, 0]]
    }, 
    {
      "op": "Reshape", 
      "name": "reshape1", 
      "attrs": {"shape": "(1, -1, 1, 0)"}, 
      "inputs": [[266, 0, 0]]
    }, 
    {
      "op": "null", 
      "name": "convolution45_weight", 
      "attrs": {
        "cudnn_off": "True", 
        "cudnn_tune": "off", 
        "dilate": "(1, 1)", 
        "kernel": "(1, 1)", 
        "no_bias": "False", 
        "num_filter": "512", 
        "pad": "(0, 0)", 
        "stride": "(1, 1)"
      }, 
      "inputs": []
    }, 
    {
      "op": "null", 
      "name": "convolution45_bias", 
      "attrs": {
        "cudnn_off": "True", 
        "cudnn_tune": "off", 
        "dilate": "(1, 1)", 
        "kernel": "(1, 1)", 
        "no_bias": "False", 
        "num_filter": "512", 
        "pad": "(0, 0)", 
        "stride": "(1, 1)"
      }, 
      "inputs": []
    }, 
    {
      "op": "Convolution", 
      "name": "convolution45", 
      "attrs": {
        "cudnn_off": "True", 
        "cudnn_tune": "off", 
        "dilate": "(1, 1)", 
        "kernel": "(1, 1)", 
        "no_bias": "False", 
        "num_filter": "512", 
        "pad": "(0, 0)", 
        "stride": "(1, 1)"
      }, 
      "inputs": [[267, 0, 0], [268, 0, 0], [269, 0, 0]]
    }, 
    {
      "op": "MaskZero", 
      "name": "maskzero46", 
      "inputs": [[270, 0, 0], [5, 0, 0]]
    }, 
    {
      "op": "SwapAxis", 
      "name": "swapaxes0", 
      "attrs": {
        "dim1": "1", 
        "dim2": "3"
      }, 
      "inputs": [[271, 0, 0]]
    }, 
    {
      "op": "Reshape", 
      "name": "reshape2", 
      "attrs": {"shape": "(0, 0, -1)"}, 
      "inputs": [[272, 0, 0]]
    }, 
    {
      "op": "null", 
      "name": "fullyconnected0_weight", 
      "attrs": {
        "flatten": "False", 
        "num_hidden": "1536"
      }, 
      "inputs": []
    }, 
    {
      "op": "null", 
      "name": "fullyconnected0_bias", 
      "attrs": {
        "flatten": "False", 
        "num_hidden": "1536"
      }, 
      "inputs": []
    }, 
    {
      "op": "FullyConnected", 
      "name": "fullyconnected0", 
      "attrs": {
        "flatten": "False", 
        "num_hidden": "1536"
      }, 
      "inputs": [[273, 0, 0], [274, 0, 0], [275, 0, 0]]
    }, 
    {
      "op": "SliceChannel", 
      "name": "split0", 
      "attrs": {
        "axis": "2", 
        "num_outputs": "3"
      }, 
      "inputs": [[276, 0, 0]]
    }, 
    {
      "op": "_mul_scalar", 
      "name": "_mulscalar0", 
      "attrs": {"scalar": "0.015625"}, 
      "inputs": [[277, 0, 0]]
    }, 
    {
      "op": "Reshape", 
      "name": "reshape3", 
      "attrs": {"shape": "(0, -1, 8, 64)"}, 
      "inputs": [[278, 0, 0]]
    }, 
    {
      "op": "transpose", 
      "name": "transpose0", 
      "attrs": {"axes": "(0, 2, 1, 3)"}, 
      "inputs": [[279, 0, 0]]
    }, 
    {
      "op": "Reshape", 
      "name": "reshape4", 
      "attrs": {"shape": "(-3, -1, 64)"}, 
      "inputs": [[280, 0, 0]]
    }, 
    {
      "op": "Reshape", 
      "name": "reshape5", 
      "attrs": {"shape": "(0, -1, 8, 64)"}, 
      "inputs": [[277, 1, 0]]
    }, 
    {
      "op": "transpose", 
      "name": "transpose1", 
      "attrs": {"axes": "(0, 2, 1, 3)"}, 
      "inputs": [[282, 0, 0]]
    }, 
    {
      "op": "Reshape", 
      "name": "reshape6", 
      "attrs": {"shape": "(-3, -1, 64)"}, 
      "inputs": [[283, 0, 0]]
    }, 
    {
      "op": "batch_dot", 
      "name": "batch_dot0", 
      "attrs": {"transpose_b": "True"}, 
      "inputs": [[281, 0, 0], [284, 0, 0]]
    }, 
    {
      "op": "null", 
      "name": "mask", 
      "inputs": []
    }, 
    {
      "op": "_minus_scalar", 
      "name": "_minusscalar0", 
      "attrs": {"scalar": "1"}, 
      "inputs": [[286, 0, 0]]
    }, 
    {
      "op": "_mul_scalar", 
      "name": "_mulscalar1", 
      "attrs": {"scalar": "10000000000.0"}, 
      "inputs": [[287, 0, 0]]
    }, 
    {
      "op": "broadcast_add", 
      "name": "broadcast_add0", 
      "inputs": [[285, 0, 0], [288, 0, 0]]
    }, 
    {
      "op": "softmax", 
      "name": "softmax0", 
      "attrs": {"axis": "-1"}, 
      "inputs": [[289, 0, 0]]
    }, 
    {
      "op": "Dropout", 
      "name": "dropout20", 
      "attrs": {
        "flag": "True", 
        "p": "0.1"
      }, 
      "inputs": [[290, 0, 0]]
    }, 
    {
      "op": "Reshape", 
      "name": "reshape7", 
      "attrs": {"shape": "(0, -1, 8, 64)"}, 
      "inputs": [[277, 2, 0]]
    }, 
    {
      "op": "transpose", 
      "name": "transpose2", 
      "attrs": {"axes": "(0, 2, 1, 3)"}, 
      "inputs": [[292, 0, 0]]
    }, 
    {
      "op": "Reshape", 
      "name": "reshape8", 
      "attrs": {"shape": "(-3, -1, 64)"}, 
      "inputs": [[293, 0, 0]]
    }, 
    {
      "op": "batch_dot", 
      "name": "batch_dot1", 
      "inputs": [[291, 0, 0], [294, 0, 0]]
    }, 
    {
      "op": "Reshape", 
      "name": "reshape9", 
      "attrs": {"shape": "(-4, -1, 8, 0, 64)"}, 
      "inputs": [[295, 0, 0]]
    }, 
    {
      "op": "transpose", 
      "name": "transpose3", 
      "attrs": {"axes": "(0, 2, 1, 3)"}, 
      "inputs": [[296, 0, 0]]
    }, 
    {
      "op": "Reshape", 
      "name": "reshape10", 
      "attrs": {"shape": "(-1, 0, 512)"}, 
      "inputs": [[297, 0, 0]]
    }, 
    {
      "op": "null", 
      "name": "fullyconnected1_weight", 
      "attrs": {
        "flatten": "False", 
        "num_hidden": "512"
      }, 
      "inputs": []
    }, 
    {
      "op": "null", 
      "name": "fullyconnected1_bias", 
      "attrs": {
        "flatten": "False", 
        "num_hidden": "512"
      }, 
      "inputs": []
    }, 
    {
      "op": "FullyConnected", 
      "name": "fullyconnected1", 
      "attrs": {
        "flatten": "False", 
        "num_hidden": "512"
      }, 
      "inputs": [[298, 0, 0], [299, 0, 0], [300, 0, 0]]
    }, 
    {
      "op": "SwapAxis", 
      "name": "swapaxes1", 
      "attrs": {
        "dim1": "1", 
        "dim2": "2"
      }, 
      "inputs": [[301, 0, 0]]
    }, 
    {
      "op": "expand_dims", 
      "name": "expand_dims0", 
      "attrs": {"axis": "2"}, 
      "inputs": [[302, 0, 0]]
    }, 
    {
      "op": "MaskZero", 
      "name": "maskzero47", 
      "inputs": [[303, 0, 0], [5, 0, 0]]
    }, 
    {
      "op": "elemwise_add", 
      "name": "_plus20", 
      "inputs": [[271, 0, 0], [304, 0, 0]]
    }, 
    {
      "op": "LeakyReLU", 
      "name": "leakyrelu41", 
      "attrs": {"slope": "0.1"}, 
      "inputs": [[305, 0, 0]]
    }, 
    {
      "op": "null", 
      "name": "convolution46_weight", 
      "attrs": {
        "cudnn_off": "True", 
        "cudnn_tune": "off", 
        "dilate": "(1, 1)", 
        "kernel": "(1, 3)", 
        "no_bias": "False", 
        "num_filter": "512", 
        "pad": "(0, 1)", 
        "stride": "(1, 1)"
      }, 
      "inputs": []
    }, 
    {
      "op": "null", 
      "name": "convolution46_bias", 
      "attrs": {
        "cudnn_off": "True", 
        "cudnn_tune": "off", 
        "dilate": "(1, 1)", 
        "kernel": "(1, 3)", 
        "no_bias": "False", 
        "num_filter": "512", 
        "pad": "(0, 1)", 
        "stride": "(1, 1)"
      }, 
      "inputs": []
    }, 
    {
      "op": "Convolution", 
      "name": "convolution46", 
      "attrs": {
        "cudnn_off": "True", 
        "cudnn_tune": "off", 
        "dilate": "(1, 1)", 
        "kernel": "(1, 3)", 
        "no_bias": "False", 
        "num_filter": "512", 
        "pad": "(0, 1)", 
        "stride": "(1, 1)"
      }, 
      "inputs": [[306, 0, 0], [307, 0, 0], [308, 0, 0]]
    }, 
    {
      "op": "MaskZero", 
      "name": "maskzero48", 
      "inputs": [[309, 0, 0], [5, 0, 0]]
    }, 
    {
      "op": "LeakyReLU", 
      "name": "leakyrelu42", 
      "attrs": {"slope": "0.1"}, 
      "inputs": [[310, 0, 0]]
    }, 
    {
      "op": "Dropout", 
      "name": "dropout21", 
      "attrs": {
        "flag": "True", 
        "p": "0.1"
      }, 
      "inputs": [[311, 0, 0]]
    }, 
    {
      "op": "null", 
      "name": "convolution47_weight", 
      "attrs": {
        "cudnn_off": "True", 
        "cudnn_tune": "off", 
        "dilate": "(1, 1)", 
        "kernel": "(1, 3)", 
        "no_bias": "False", 
        "num_filter": "512", 
        "pad": "(0, 1)", 
        "stride": "(1, 1)"
      }, 
      "inputs": []
    }, 
    {
      "op": "null", 
      "name": "convolution47_bias", 
      "attrs": {
        "cudnn_off": "True", 
        "cudnn_tune": "off", 
        "dilate": "(1, 1)", 
        "kernel": "(1, 3)", 
        "no_bias": "False", 
        "num_filter": "512", 
        "pad": "(0, 1)", 
        "stride": "(1, 1)"
      }, 
      "inputs": []
    }, 
    {
      "op": "Convolution", 
      "name": "convolution47", 
      "attrs": {
        "cudnn_off": "True", 
        "cudnn_tune": "off", 
        "dilate": "(1, 1)", 
        "kernel": "(1, 3)", 
        "no_bias": "False", 
        "num_filter": "512", 
        "pad": "(0, 1)", 
        "stride": "(1, 1)"
      }, 
      "inputs": [[312, 0, 0], [313, 0, 0], [314, 0, 0]]
    }, 
    {
      "op": "MaskZero", 
      "name": "maskzero49", 
      "inputs": [[315, 0, 0], [5, 0, 0]]
    }, 
    {
      "op": "elemwise_add", 
      "name": "_plus21", 
      "inputs": [[305, 0, 0], [316, 0, 0]]
    }, 
    {
      "op": "LeakyReLU", 
      "name": "leakyrelu43", 
      "attrs": {"slope": "0.1"}, 
      "inputs": [[317, 0, 0]]
    }, 
    {
      "op": "null", 
      "name": "convolution48_weight", 
      "attrs": {
        "cudnn_off": "True", 
        "cudnn_tune": "off", 
        "dilate": "(1, 1)", 
        "kernel": "(1, 3)", 
        "no_bias": "False", 
        "num_filter": "512", 
        "pad": "(0, 1)", 
        "stride": "(1, 1)"
      }, 
      "inputs": []
    }, 
    {
      "op": "null", 
      "name": "convolution48_bias", 
      "attrs": {
        "cudnn_off": "True", 
        "cudnn_tune": "off", 
        "dilate": "(1, 1)", 
        "kernel": "(1, 3)", 
        "no_bias": "False", 
        "num_filter": "512", 
        "pad": "(0, 1)", 
        "stride": "(1, 1)"
      }, 
      "inputs": []
    }, 
    {
      "op": "Convolution", 
      "name": "convolution48", 
      "attrs": {
        "cudnn_off": "True", 
        "cudnn_tune": "off", 
        "dilate": "(1, 1)", 
        "kernel": "(1, 3)", 
        "no_bias": "False", 
        "num_filter": "512", 
        "pad": "(0, 1)", 
        "stride": "(1, 1)"
      }, 
      "inputs": [[318, 0, 0], [319, 0, 0], [320, 0, 0]]
    }, 
    {
      "op": "MaskZero", 
      "name": "maskzero50", 
      "inputs": [[321, 0, 0], [5, 0, 0]]
    }, 
    {
      "op": "LeakyReLU", 
      "name": "leakyrelu44", 
      "attrs": {"slope": "0.1"}, 
      "inputs": [[322, 0, 0]]
    }, 
    {
      "op": "Dropout", 
      "name": "dropout22", 
      "attrs": {
        "flag": "True", 
        "p": "0.1"
      }, 
      "inputs": [[323, 0, 0]]
    }, 
    {
      "op": "null", 
      "name": "convolution49_weight", 
      "attrs": {
        "cudnn_off": "True", 
        "cudnn_tune": "off", 
        "dilate": "(1, 1)", 
        "kernel": "(1, 3)", 
        "no_bias": "False", 
        "num_filter": "512", 
        "pad": "(0, 1)", 
        "stride": "(1, 1)"
      }, 
      "inputs": []
    }, 
    {
      "op": "null", 
      "name": "convolution49_bias", 
      "attrs": {
        "cudnn_off": "True", 
        "cudnn_tune": "off", 
        "dilate": "(1, 1)", 
        "kernel": "(1, 3)", 
        "no_bias": "False", 
        "num_filter": "512", 
        "pad": "(0, 1)", 
        "stride": "(1, 1)"
      }, 
      "inputs": []
    }, 
    {
      "op": "Convolution", 
      "name": "convolution49", 
      "attrs": {
        "cudnn_off": "True", 
        "cudnn_tune": "off", 
        "dilate": "(1, 1)", 
        "kernel": "(1, 3)", 
        "no_bias": "False", 
        "num_filter": "512", 
        "pad": "(0, 1)", 
        "stride": "(1, 1)"
      }, 
      "inputs": [[324, 0, 0], [325, 0, 0], [326, 0, 0]]
    }, 
    {
      "op": "MaskZero", 
      "name": "maskzero51", 
      "inputs": [[327, 0, 0], [5, 0, 0]]
    }, 
    {
      "op": "elemwise_add", 
      "name": "_plus22", 
      "inputs": [[317, 0, 0], [328, 0, 0]]
    }, 
    {
      "op": "LeakyReLU", 
      "name": "leakyrelu45", 
      "attrs": {"slope": "0.1"}, 
      "inputs": [[329, 0, 0]]
    }, 
    {
      "op": "SwapAxis", 
      "name": "swapaxes2", 
      "attrs": {
        "dim1": "1", 
        "dim2": "3"
      }, 
      "inputs": [[330, 0, 0]]
    }, 
    {
      "op": "Reshape", 
      "name": "reshape11", 
      "attrs": {"shape": "(0, 0, -1)"}, 
      "inputs": [[331, 0, 0]]
    }, 
    {
      "op": "null", 
      "name": "fullyconnected2_weight", 
      "attrs": {
        "flatten": "False", 
        "num_hidden": "1536"
      }, 
      "inputs": []
    }, 
    {
      "op": "null", 
      "name": "fullyconnected2_bias", 
      "attrs": {
        "flatten": "False", 
        "num_hidden": "1536"
      }, 
      "inputs": []
    }, 
    {
      "op": "FullyConnected", 
      "name": "fullyconnected2", 
      "attrs": {
        "flatten": "False", 
        "num_hidden": "1536"
      }, 
      "inputs": [[332, 0, 0], [333, 0, 0], [334, 0, 0]]
    }, 
    {
      "op": "SliceChannel", 
      "name": "split1", 
      "attrs": {
        "axis": "2", 
        "num_outputs": "3"
      }, 
      "inputs": [[335, 0, 0]]
    }, 
    {
      "op": "_mul_scalar", 
      "name": "_mulscalar2", 
      "attrs": {"scalar": "0.015625"}, 
      "inputs": [[336, 0, 0]]
    }, 
    {
      "op": "Reshape", 
      "name": "reshape12", 
      "attrs": {"shape": "(0, -1, 8, 64)"}, 
      "inputs": [[337, 0, 0]]
    }, 
    {
      "op": "transpose", 
      "name": "transpose4", 
      "attrs": {"axes": "(0, 2, 1, 3)"}, 
      "inputs": [[338, 0, 0]]
    }, 
    {
      "op": "Reshape", 
      "name": "reshape13", 
      "attrs": {"shape": "(-3, -1, 64)"}, 
      "inputs": [[339, 0, 0]]
    }, 
    {
      "op": "Reshape", 
      "name": "reshape14", 
      "attrs": {"shape": "(0, -1, 8, 64)"}, 
      "inputs": [[336, 1, 0]]
    }, 
    {
      "op": "transpose", 
      "name": "transpose5", 
      "attrs": {"axes": "(0, 2, 1, 3)"}, 
      "inputs": [[341, 0, 0]]
    }, 
    {
      "op": "Reshape", 
      "name": "reshape15", 
      "attrs": {"shape": "(-3, -1, 64)"}, 
      "inputs": [[342, 0, 0]]
    }, 
    {
      "op": "batch_dot", 
      "name": "batch_dot2", 
      "attrs": {"transpose_b": "True"}, 
      "inputs": [[340, 0, 0], [343, 0, 0]]
    }, 
    {
      "op": "_minus_scalar", 
      "name": "_minusscalar1", 
      "attrs": {"scalar": "1"}, 
      "inputs": [[286, 0, 0]]
    }, 
    {
      "op": "_mul_scalar", 
      "name": "_mulscalar3", 
      "attrs": {"scalar": "10000000000.0"}, 
      "inputs": [[345, 0, 0]]
    }, 
    {
      "op": "broadcast_add", 
      "name": "broadcast_add1", 
      "inputs": [[344, 0, 0], [346, 0, 0]]
    }, 
    {
      "op": "softmax", 
      "name": "softmax1", 
      "attrs": {"axis": "-1"}, 
      "inputs": [[347, 0, 0]]
    }, 
    {
      "op": "Dropout", 
      "name": "dropout23", 
      "attrs": {
        "flag": "True", 
        "p": "0.1"
      }, 
      "inputs": [[348, 0, 0]]
    }, 
    {
      "op": "Reshape", 
      "name": "reshape16", 
      "attrs": {"shape": "(0, -1, 8, 64)"}, 
      "inputs": [[336, 2, 0]]
    }, 
    {
      "op": "transpose", 
      "name": "transpose6", 
      "attrs": {"axes": "(0, 2, 1, 3)"}, 
      "inputs": [[350, 0, 0]]
    }, 
    {
      "op": "Reshape", 
      "name": "reshape17", 
      "attrs": {"shape": "(-3, -1, 64)"}, 
      "inputs": [[351, 0, 0]]
    }, 
    {
      "op": "batch_dot", 
      "name": "batch_dot3", 
      "inputs": [[349, 0, 0], [352, 0, 0]]
    }, 
    {
      "op": "Reshape", 
      "name": "reshape18", 
      "attrs": {"shape": "(-4, -1, 8, 0, 64)"}, 
      "inputs": [[353, 0, 0]]
    }, 
    {
      "op": "transpose", 
      "name": "transpose7", 
      "attrs": {"axes": "(0, 2, 1, 3)"}, 
      "inputs": [[354, 0, 0]]
    }, 
    {
      "op": "Reshape", 
      "name": "reshape19", 
      "attrs": {"shape": "(-1, 0, 512)"}, 
      "inputs": [[355, 0, 0]]
    }, 
    {
      "op": "null", 
      "name": "fullyconnected3_weight", 
      "attrs": {
        "flatten": "False", 
        "num_hidden": "512"
      }, 
      "inputs": []
    }, 
    {
      "op": "null", 
      "name": "fullyconnected3_bias", 
      "attrs": {
        "flatten": "False", 
        "num_hidden": "512"
      }, 
      "inputs": []
    }, 
    {
      "op": "FullyConnected", 
      "name": "fullyconnected3", 
      "attrs": {
        "flatten": "False", 
        "num_hidden": "512"
      }, 
      "inputs": [[356, 0, 0], [357, 0, 0], [358, 0, 0]]
    }, 
    {
      "op": "SwapAxis", 
      "name": "swapaxes3", 
      "attrs": {
        "dim1": "1", 
        "dim2": "2"
      }, 
      "inputs": [[359, 0, 0]]
    }, 
    {
      "op": "expand_dims", 
      "name": "expand_dims1", 
      "attrs": {"axis": "2"}, 
      "inputs": [[360, 0, 0]]
    }, 
    {
      "op": "MaskZero", 
      "name": "maskzero52", 
      "inputs": [[361, 0, 0], [5, 0, 0]]
    }, 
    {
      "op": "elemwise_add", 
      "name": "_plus23", 
      "inputs": [[329, 0, 0], [362, 0, 0]]
    }, 
    {
      "op": "LeakyReLU", 
      "name": "leakyrelu46", 
      "attrs": {"slope": "0.1"}, 
      "inputs": [[363, 0, 0]]
    }, 
    {
      "op": "null", 
      "name": "convolution50_weight", 
      "attrs": {
        "cudnn_off": "True", 
        "cudnn_tune": "off", 
        "dilate": "(1, 1)", 
        "kernel": "(1, 3)", 
        "no_bias": "False", 
        "num_filter": "512", 
        "pad": "(0, 1)", 
        "stride": "(1, 1)"
      }, 
      "inputs": []
    }, 
    {
      "op": "null", 
      "name": "convolution50_bias", 
      "attrs": {
        "cudnn_off": "True", 
        "cudnn_tune": "off", 
        "dilate": "(1, 1)", 
        "kernel": "(1, 3)", 
        "no_bias": "False", 
        "num_filter": "512", 
        "pad": "(0, 1)", 
        "stride": "(1, 1)"
      }, 
      "inputs": []
    }, 
    {
      "op": "Convolution", 
      "name": "convolution50", 
      "attrs": {
        "cudnn_off": "True", 
        "cudnn_tune": "off", 
        "dilate": "(1, 1)", 
        "kernel": "(1, 3)", 
        "no_bias": "False", 
        "num_filter": "512", 
        "pad": "(0, 1)", 
        "stride": "(1, 1)"
      }, 
      "inputs": [[364, 0, 0], [365, 0, 0], [366, 0, 0]]
    }, 
    {
      "op": "MaskZero", 
      "name": "maskzero53", 
      "inputs": [[367, 0, 0], [5, 0, 0]]
    }, 
    {
      "op": "LeakyReLU", 
      "name": "leakyrelu47", 
      "attrs": {"slope": "0.1"}, 
      "inputs": [[368, 0, 0]]
    }, 
    {
      "op": "Dropout", 
      "name": "dropout24", 
      "attrs": {
        "flag": "True", 
        "p": "0.1"
      }, 
      "inputs": [[369, 0, 0]]
    }, 
    {
      "op": "null", 
      "name": "convolution51_weight", 
      "attrs": {
        "cudnn_off": "True", 
        "cudnn_tune": "off", 
        "dilate": "(1, 1)", 
        "kernel": "(1, 3)", 
        "no_bias": "False", 
        "num_filter": "512", 
        "pad": "(0, 1)", 
        "stride": "(1, 1)"
      }, 
      "inputs": []
    }, 
    {
      "op": "null", 
      "name": "convolution51_bias", 
      "attrs": {
        "cudnn_off": "True", 
        "cudnn_tune": "off", 
        "dilate": "(1, 1)", 
        "kernel": "(1, 3)", 
        "no_bias": "False", 
        "num_filter": "512", 
        "pad": "(0, 1)", 
        "stride": "(1, 1)"
      }, 
      "inputs": []
    }, 
    {
      "op": "Convolution", 
      "name": "convolution51", 
      "attrs": {
        "cudnn_off": "True", 
        "cudnn_tune": "off", 
        "dilate": "(1, 1)", 
        "kernel": "(1, 3)", 
        "no_bias": "False", 
        "num_filter": "512", 
        "pad": "(0, 1)", 
        "stride": "(1, 1)"
      }, 
      "inputs": [[370, 0, 0], [371, 0, 0], [372, 0, 0]]
    }, 
    {
      "op": "MaskZero", 
      "name": "maskzero54", 
      "inputs": [[373, 0, 0], [5, 0, 0]]
    }, 
    {
      "op": "elemwise_add", 
      "name": "_plus24", 
      "inputs": [[363, 0, 0], [374, 0, 0]]
    }, 
    {
      "op": "LeakyReLU", 
      "name": "leakyrelu48", 
      "attrs": {"slope": "0.1"}, 
      "inputs": [[375, 0, 0]]
    }, 
    {
      "op": "null", 
      "name": "convolution52_weight", 
      "attrs": {
        "cudnn_off": "True", 
        "cudnn_tune": "off", 
        "dilate": "(1, 1)", 
        "kernel": "(1, 3)", 
        "no_bias": "False", 
        "num_filter": "512", 
        "pad": "(0, 1)", 
        "stride": "(1, 1)"
      }, 
      "inputs": []
    }, 
    {
      "op": "null", 
      "name": "convolution52_bias", 
      "attrs": {
        "cudnn_off": "True", 
        "cudnn_tune": "off", 
        "dilate": "(1, 1)", 
        "kernel": "(1, 3)", 
        "no_bias": "False", 
        "num_filter": "512", 
        "pad": "(0, 1)", 
        "stride": "(1, 1)"
      }, 
      "inputs": []
    }, 
    {
      "op": "Convolution", 
      "name": "convolution52", 
      "attrs": {
        "cudnn_off": "True", 
        "cudnn_tune": "off", 
        "dilate": "(1, 1)", 
        "kernel": "(1, 3)", 
        "no_bias": "False", 
        "num_filter": "512", 
        "pad": "(0, 1)", 
        "stride": "(1, 1)"
      }, 
      "inputs": [[376, 0, 0], [377, 0, 0], [378, 0, 0]]
    }, 
    {
      "op": "MaskZero", 
      "name": "maskzero55", 
      "inputs": [[379, 0, 0], [5, 0, 0]]
    }, 
    {
      "op": "LeakyReLU", 
      "name": "leakyrelu49", 
      "attrs": {"slope": "0.1"}, 
      "inputs": [[380, 0, 0]]
    }, 
    {
      "op": "Dropout", 
      "name": "dropout25", 
      "attrs": {
        "flag": "True", 
        "p": "0.1"
      }, 
      "inputs": [[381, 0, 0]]
    }, 
    {
      "op": "null", 
      "name": "convolution53_weight", 
      "attrs": {
        "cudnn_off": "True", 
        "cudnn_tune": "off", 
        "dilate": "(1, 1)", 
        "kernel": "(1, 3)", 
        "no_bias": "False", 
        "num_filter": "512", 
        "pad": "(0, 1)", 
        "stride": "(1, 1)"
      }, 
      "inputs": []
    }, 
    {
      "op": "null", 
      "name": "convolution53_bias", 
      "attrs": {
        "cudnn_off": "True", 
        "cudnn_tune": "off", 
        "dilate": "(1, 1)", 
        "kernel": "(1, 3)", 
        "no_bias": "False", 
        "num_filter": "512", 
        "pad": "(0, 1)", 
        "stride": "(1, 1)"
      }, 
      "inputs": []
    }, 
    {
      "op": "Convolution", 
      "name": "convolution53", 
      "attrs": {
        "cudnn_off": "True", 
        "cudnn_tune": "off", 
        "dilate": "(1, 1)", 
        "kernel": "(1, 3)", 
        "no_bias": "False", 
        "num_filter": "512", 
        "pad": "(0, 1)", 
        "stride": "(1, 1)"
      }, 
      "inputs": [[382, 0, 0], [383, 0, 0], [384, 0, 0]]
    }, 
    {
      "op": "MaskZero", 
      "name": "maskzero56", 
      "inputs": [[385, 0, 0], [5, 0, 0]]
    }, 
    {
      "op": "elemwise_add", 
      "name": "_plus25", 
      "inputs": [[375, 0, 0], [386, 0, 0]]
    }, 
    {
      "op": "LeakyReLU", 
      "name": "leakyrelu50", 
      "attrs": {"slope": "0.1"}, 
      "inputs": [[387, 0, 0]]
    }, 
    {
      "op": "SwapAxis", 
      "name": "swapaxes4", 
      "attrs": {
        "dim1": "1", 
        "dim2": "3"
      }, 
      "inputs": [[388, 0, 0]]
    }, 
    {
      "op": "Reshape", 
      "name": "reshape20", 
      "attrs": {"shape": "(0, 0, -1)"}, 
      "inputs": [[389, 0, 0]]
    }, 
    {
      "op": "null", 
      "name": "fullyconnected4_weight", 
      "attrs": {
        "flatten": "False", 
        "num_hidden": "1536"
      }, 
      "inputs": []
    }, 
    {
      "op": "null", 
      "name": "fullyconnected4_bias", 
      "attrs": {
        "flatten": "False", 
        "num_hidden": "1536"
      }, 
      "inputs": []
    }, 
    {
      "op": "FullyConnected", 
      "name": "fullyconnected4", 
      "attrs": {
        "flatten": "False", 
        "num_hidden": "1536"
      }, 
      "inputs": [[390, 0, 0], [391, 0, 0], [392, 0, 0]]
    }, 
    {
      "op": "SliceChannel", 
      "name": "split2", 
      "attrs": {
        "axis": "2", 
        "num_outputs": "3"
      }, 
      "inputs": [[393, 0, 0]]
    }, 
    {
      "op": "_mul_scalar", 
      "name": "_mulscalar4", 
      "attrs": {"scalar": "0.015625"}, 
      "inputs": [[394, 0, 0]]
    }, 
    {
      "op": "Reshape", 
      "name": "reshape21", 
      "attrs": {"shape": "(0, -1, 8, 64)"}, 
      "inputs": [[395, 0, 0]]
    }, 
    {
      "op": "transpose", 
      "name": "transpose8", 
      "attrs": {"axes": "(0, 2, 1, 3)"}, 
      "inputs": [[396, 0, 0]]
    }, 
    {
      "op": "Reshape", 
      "name": "reshape22", 
      "attrs": {"shape": "(-3, -1, 64)"}, 
      "inputs": [[397, 0, 0]]
    }, 
    {
      "op": "Reshape", 
      "name": "reshape23", 
      "attrs": {"shape": "(0, -1, 8, 64)"}, 
      "inputs": [[394, 1, 0]]
    }, 
    {
      "op": "transpose", 
      "name": "transpose9", 
      "attrs": {"axes": "(0, 2, 1, 3)"}, 
      "inputs": [[399, 0, 0]]
    }, 
    {
      "op": "Reshape", 
      "name": "reshape24", 
      "attrs": {"shape": "(-3, -1, 64)"}, 
      "inputs": [[400, 0, 0]]
    }, 
    {
      "op": "batch_dot", 
      "name": "batch_dot4", 
      "attrs": {"transpose_b": "True"}, 
      "inputs": [[398, 0, 0], [401, 0, 0]]
    }, 
    {
      "op": "_minus_scalar", 
      "name": "_minusscalar2", 
      "attrs": {"scalar": "1"}, 
      "inputs": [[286, 0, 0]]
    }, 
    {
      "op": "_mul_scalar", 
      "name": "_mulscalar5", 
      "attrs": {"scalar": "10000000000.0"}, 
      "inputs": [[403, 0, 0]]
    }, 
    {
      "op": "broadcast_add", 
      "name": "broadcast_add2", 
      "inputs": [[402, 0, 0], [404, 0, 0]]
    }, 
    {
      "op": "softmax", 
      "name": "softmax2", 
      "attrs": {"axis": "-1"}, 
      "inputs": [[405, 0, 0]]
    }, 
    {
      "op": "Dropout", 
      "name": "dropout26", 
      "attrs": {
        "flag": "True", 
        "p": "0.1"
      }, 
      "inputs": [[406, 0, 0]]
    }, 
    {
      "op": "Reshape", 
      "name": "reshape25", 
      "attrs": {"shape": "(0, -1, 8, 64)"}, 
      "inputs": [[394, 2, 0]]
    }, 
    {
      "op": "transpose", 
      "name": "transpose10", 
      "attrs": {"axes": "(0, 2, 1, 3)"}, 
      "inputs": [[408, 0, 0]]
    }, 
    {
      "op": "Reshape", 
      "name": "reshape26", 
      "attrs": {"shape": "(-3, -1, 64)"}, 
      "inputs": [[409, 0, 0]]
    }, 
    {
      "op": "batch_dot", 
      "name": "batch_dot5", 
      "inputs": [[407, 0, 0], [410, 0, 0]]
    }, 
    {
      "op": "Reshape", 
      "name": "reshape27", 
      "attrs": {"shape": "(-4, -1, 8, 0, 64)"}, 
      "inputs": [[411, 0, 0]]
    }, 
    {
      "op": "transpose", 
      "name": "transpose11", 
      "attrs": {"axes": "(0, 2, 1, 3)"}, 
      "inputs": [[412, 0, 0]]
    }, 
    {
      "op": "Reshape", 
      "name": "reshape28", 
      "attrs": {"shape": "(-1, 0, 512)"}, 
      "inputs": [[413, 0, 0]]
    }, 
    {
      "op": "null", 
      "name": "fullyconnected5_weight", 
      "attrs": {
        "flatten": "False", 
        "num_hidden": "512"
      }, 
      "inputs": []
    }, 
    {
      "op": "null", 
      "name": "fullyconnected5_bias", 
      "attrs": {
        "flatten": "False", 
        "num_hidden": "512"
      }, 
      "inputs": []
    }, 
    {
      "op": "FullyConnected", 
      "name": "fullyconnected5", 
      "attrs": {
        "flatten": "False", 
        "num_hidden": "512"
      }, 
      "inputs": [[414, 0, 0], [415, 0, 0], [416, 0, 0]]
    }, 
    {
      "op": "SwapAxis", 
      "name": "swapaxes5", 
      "attrs": {
        "dim1": "1", 
        "dim2": "2"
      }, 
      "inputs": [[417, 0, 0]]
    }, 
    {
      "op": "expand_dims", 
      "name": "expand_dims2", 
      "attrs": {"axis": "2"}, 
      "inputs": [[418, 0, 0]]
    }, 
    {
      "op": "MaskZero", 
      "name": "maskzero57", 
      "inputs": [[419, 0, 0], [5, 0, 0]]
    }, 
    {
      "op": "elemwise_add", 
      "name": "_plus26", 
      "inputs": [[387, 0, 0], [420, 0, 0]]
    }, 
    {
      "op": "LeakyReLU", 
      "name": "leakyrelu51", 
      "attrs": {"slope": "0.1"}, 
      "inputs": [[421, 0, 0]]
    }, 
    {
      "op": "null", 
      "name": "convolution54_weight", 
      "attrs": {
        "cudnn_off": "True", 
        "cudnn_tune": "off", 
        "dilate": "(1, 1)", 
        "kernel": "(1, 3)", 
        "no_bias": "False", 
        "num_filter": "512", 
        "pad": "(0, 1)", 
        "stride": "(1, 1)"
      }, 
      "inputs": []
    }, 
    {
      "op": "null", 
      "name": "convolution54_bias", 
      "attrs": {
        "cudnn_off": "True", 
        "cudnn_tune": "off", 
        "dilate": "(1, 1)", 
        "kernel": "(1, 3)", 
        "no_bias": "False", 
        "num_filter": "512", 
        "pad": "(0, 1)", 
        "stride": "(1, 1)"
      }, 
      "inputs": []
    }, 
    {
      "op": "Convolution", 
      "name": "convolution54", 
      "attrs": {
        "cudnn_off": "True", 
        "cudnn_tune": "off", 
        "dilate": "(1, 1)", 
        "kernel": "(1, 3)", 
        "no_bias": "False", 
        "num_filter": "512", 
        "pad": "(0, 1)", 
        "stride": "(1, 1)"
      }, 
      "inputs": [[422, 0, 0], [423, 0, 0], [424, 0, 0]]
    }, 
    {
      "op": "MaskZero", 
      "name": "maskzero58", 
      "inputs": [[425, 0, 0], [5, 0, 0]]
    }, 
    {
      "op": "LeakyReLU", 
      "name": "leakyrelu52", 
      "attrs": {"slope": "0.1"}, 
      "inputs": [[426, 0, 0]]
    }, 
    {
      "op": "Dropout", 
      "name": "dropout27", 
      "attrs": {
        "flag": "True", 
        "p": "0.1"
      }, 
      "inputs": [[427, 0, 0]]
    }, 
    {
      "op": "null", 
      "name": "convolution55_weight", 
      "attrs": {
        "cudnn_off": "True", 
        "cudnn_tune": "off", 
        "dilate": "(1, 1)", 
        "kernel": "(1, 3)", 
        "no_bias": "False", 
        "num_filter": "512", 
        "pad": "(0, 1)", 
        "stride": "(1, 1)"
      }, 
      "inputs": []
    }, 
    {
      "op": "null", 
      "name": "convolution55_bias", 
      "attrs": {
        "cudnn_off": "True", 
        "cudnn_tune": "off", 
        "dilate": "(1, 1)", 
        "kernel": "(1, 3)", 
        "no_bias": "False", 
        "num_filter": "512", 
        "pad": "(0, 1)", 
        "stride": "(1, 1)"
      }, 
      "inputs": []
    }, 
    {
      "op": "Convolution", 
      "name": "convolution55", 
      "attrs": {
        "cudnn_off": "True", 
        "cudnn_tune": "off", 
        "dilate": "(1, 1)", 
        "kernel": "(1, 3)", 
        "no_bias": "False", 
        "num_filter": "512", 
        "pad": "(0, 1)", 
        "stride": "(1, 1)"
      }, 
      "inputs": [[428, 0, 0], [429, 0, 0], [430, 0, 0]]
    }, 
    {
      "op": "MaskZero", 
      "name": "maskzero59", 
      "inputs": [[431, 0, 0], [5, 0, 0]]
    }, 
    {
      "op": "elemwise_add", 
      "name": "_plus27", 
      "inputs": [[421, 0, 0], [432, 0, 0]]
    }, 
    {
      "op": "LeakyReLU", 
      "name": "leakyrelu53", 
      "attrs": {"slope": "0.1"}, 
      "inputs": [[433, 0, 0]]
    }, 
    {
      "op": "null", 
      "name": "convolution56_weight", 
      "attrs": {
        "cudnn_off": "True", 
        "cudnn_tune": "off", 
        "dilate": "(1, 1)", 
        "kernel": "(1, 3)", 
        "no_bias": "False", 
        "num_filter": "512", 
        "pad": "(0, 1)", 
        "stride": "(1, 1)"
      }, 
      "inputs": []
    }, 
    {
      "op": "null", 
      "name": "convolution56_bias", 
      "attrs": {
        "cudnn_off": "True", 
        "cudnn_tune": "off", 
        "dilate": "(1, 1)", 
        "kernel": "(1, 3)", 
        "no_bias": "False", 
        "num_filter": "512", 
        "pad": "(0, 1)", 
        "stride": "(1, 1)"
      }, 
      "inputs": []
    }, 
    {
      "op": "Convolution", 
      "name": "convolution56", 
      "attrs": {
        "cudnn_off": "True", 
        "cudnn_tune": "off", 
        "dilate": "(1, 1)", 
        "kernel": "(1, 3)", 
        "no_bias": "False", 
        "num_filter": "512", 
        "pad": "(0, 1)", 
        "stride": "(1, 1)"
      }, 
      "inputs": [[434, 0, 0], [435, 0, 0], [436, 0, 0]]
    }, 
    {
      "op": "MaskZero", 
      "name": "maskzero60", 
      "inputs": [[437, 0, 0], [5, 0, 0]]
    }, 
    {
      "op": "LeakyReLU", 
      "name": "leakyrelu54", 
      "attrs": {"slope": "0.1"}, 
      "inputs": [[438, 0, 0]]
    }, 
    {
      "op": "Dropout", 
      "name": "dropout28", 
      "attrs": {
        "flag": "True", 
        "p": "0.1"
      }, 
      "inputs": [[439, 0, 0]]
    }, 
    {
      "op": "null", 
      "name": "convolution57_weight", 
      "attrs": {
        "cudnn_off": "True", 
        "cudnn_tune": "off", 
        "dilate": "(1, 1)", 
        "kernel": "(1, 3)", 
        "no_bias": "False", 
        "num_filter": "512", 
        "pad": "(0, 1)", 
        "stride": "(1, 1)"
      }, 
      "inputs": []
    }, 
    {
      "op": "null", 
      "name": "convolution57_bias", 
      "attrs": {
        "cudnn_off": "True", 
        "cudnn_tune": "off", 
        "dilate": "(1, 1)", 
        "kernel": "(1, 3)", 
        "no_bias": "False", 
        "num_filter": "512", 
        "pad": "(0, 1)", 
        "stride": "(1, 1)"
      }, 
      "inputs": []
    }, 
    {
      "op": "Convolution", 
      "name": "convolution57", 
      "attrs": {
        "cudnn_off": "True", 
        "cudnn_tune": "off", 
        "dilate": "(1, 1)", 
        "kernel": "(1, 3)", 
        "no_bias": "False", 
        "num_filter": "512", 
        "pad": "(0, 1)", 
        "stride": "(1, 1)"
      }, 
      "inputs": [[440, 0, 0], [441, 0, 0], [442, 0, 0]]
    }, 
    {
      "op": "MaskZero", 
      "name": "maskzero61", 
      "inputs": [[443, 0, 0], [5, 0, 0]]
    }, 
    {
      "op": "elemwise_add", 
      "name": "_plus28", 
      "inputs": [[433, 0, 0], [444, 0, 0]]
    }, 
    {
      "op": "LeakyReLU", 
      "name": "leakyrelu55", 
      "attrs": {"slope": "0.1"}, 
      "inputs": [[445, 0, 0]]
    }, 
    {
      "op": "SwapAxis", 
      "name": "swapaxes6", 
      "attrs": {
        "dim1": "1", 
        "dim2": "3"
      }, 
      "inputs": [[446, 0, 0]]
    }, 
    {
      "op": "Reshape", 
      "name": "reshape29", 
      "attrs": {"shape": "(0, 0, -1)"}, 
      "inputs": [[447, 0, 0]]
    }, 
    {
      "op": "null", 
      "name": "fullyconnected6_weight", 
      "attrs": {
        "flatten": "False", 
        "num_hidden": "1536"
      }, 
      "inputs": []
    }, 
    {
      "op": "null", 
      "name": "fullyconnected6_bias", 
      "attrs": {
        "flatten": "False", 
        "num_hidden": "1536"
      }, 
      "inputs": []
    }, 
    {
      "op": "FullyConnected", 
      "name": "fullyconnected6", 
      "attrs": {
        "flatten": "False", 
        "num_hidden": "1536"
      }, 
      "inputs": [[448, 0, 0], [449, 0, 0], [450, 0, 0]]
    }, 
    {
      "op": "SliceChannel", 
      "name": "split3", 
      "attrs": {
        "axis": "2", 
        "num_outputs": "3"
      }, 
      "inputs": [[451, 0, 0]]
    }, 
    {
      "op": "_mul_scalar", 
      "name": "_mulscalar6", 
      "attrs": {"scalar": "0.015625"}, 
      "inputs": [[452, 0, 0]]
    }, 
    {
      "op": "Reshape", 
      "name": "reshape30", 
      "attrs": {"shape": "(0, -1, 8, 64)"}, 
      "inputs": [[453, 0, 0]]
    }, 
    {
      "op": "transpose", 
      "name": "transpose12", 
      "attrs": {"axes": "(0, 2, 1, 3)"}, 
      "inputs": [[454, 0, 0]]
    }, 
    {
      "op": "Reshape", 
      "name": "reshape31", 
      "attrs": {"shape": "(-3, -1, 64)"}, 
      "inputs": [[455, 0, 0]]
    }, 
    {
      "op": "Reshape", 
      "name": "reshape32", 
      "attrs": {"shape": "(0, -1, 8, 64)"}, 
      "inputs": [[452, 1, 0]]
    }, 
    {
      "op": "transpose", 
      "name": "transpose13", 
      "attrs": {"axes": "(0, 2, 1, 3)"}, 
      "inputs": [[457, 0, 0]]
    }, 
    {
      "op": "Reshape", 
      "name": "reshape33", 
      "attrs": {"shape": "(-3, -1, 64)"}, 
      "inputs": [[458, 0, 0]]
    }, 
    {
      "op": "batch_dot", 
      "name": "batch_dot6", 
      "attrs": {"transpose_b": "True"}, 
      "inputs": [[456, 0, 0], [459, 0, 0]]
    }, 
    {
      "op": "_minus_scalar", 
      "name": "_minusscalar3", 
      "attrs": {"scalar": "1"}, 
      "inputs": [[286, 0, 0]]
    }, 
    {
      "op": "_mul_scalar", 
      "name": "_mulscalar7", 
      "attrs": {"scalar": "10000000000.0"}, 
      "inputs": [[461, 0, 0]]
    }, 
    {
      "op": "broadcast_add", 
      "name": "broadcast_add3", 
      "inputs": [[460, 0, 0], [462, 0, 0]]
    }, 
    {
      "op": "softmax", 
      "name": "softmax3", 
      "attrs": {"axis": "-1"}, 
      "inputs": [[463, 0, 0]]
    }, 
    {
      "op": "Dropout", 
      "name": "dropout29", 
      "attrs": {
        "flag": "True", 
        "p": "0.1"
      }, 
      "inputs": [[464, 0, 0]]
    }, 
    {
      "op": "Reshape", 
      "name": "reshape34", 
      "attrs": {"shape": "(0, -1, 8, 64)"}, 
      "inputs": [[452, 2, 0]]
    }, 
    {
      "op": "transpose", 
      "name": "transpose14", 
      "attrs": {"axes": "(0, 2, 1, 3)"}, 
      "inputs": [[466, 0, 0]]
    }, 
    {
      "op": "Reshape", 
      "name": "reshape35", 
      "attrs": {"shape": "(-3, -1, 64)"}, 
      "inputs": [[467, 0, 0]]
    }, 
    {
      "op": "batch_dot", 
      "name": "batch_dot7", 
      "inputs": [[465, 0, 0], [468, 0, 0]]
    }, 
    {
      "op": "Reshape", 
      "name": "reshape36", 
      "attrs": {"shape": "(-4, -1, 8, 0, 64)"}, 
      "inputs": [[469, 0, 0]]
    }, 
    {
      "op": "transpose", 
      "name": "transpose15", 
      "attrs": {"axes": "(0, 2, 1, 3)"}, 
      "inputs": [[470, 0, 0]]
    }, 
    {
      "op": "Reshape", 
      "name": "reshape37", 
      "attrs": {"shape": "(-1, 0, 512)"}, 
      "inputs": [[471, 0, 0]]
    }, 
    {
      "op": "null", 
      "name": "fullyconnected7_weight", 
      "attrs": {
        "flatten": "False", 
        "num_hidden": "512"
      }, 
      "inputs": []
    }, 
    {
      "op": "null", 
      "name": "fullyconnected7_bias", 
      "attrs": {
        "flatten": "False", 
        "num_hidden": "512"
      }, 
      "inputs": []
    }, 
    {
      "op": "FullyConnected", 
      "name": "fullyconnected7", 
      "attrs": {
        "flatten": "False", 
        "num_hidden": "512"
      }, 
      "inputs": [[472, 0, 0], [473, 0, 0], [474, 0, 0]]
    }, 
    {
      "op": "SwapAxis", 
      "name": "swapaxes7", 
      "attrs": {
        "dim1": "1", 
        "dim2": "2"
      }, 
      "inputs": [[475, 0, 0]]
    }, 
    {
      "op": "expand_dims", 
      "name": "expand_dims3", 
      "attrs": {"axis": "2"}, 
      "inputs": [[476, 0, 0]]
    }, 
    {
      "op": "MaskZero", 
      "name": "maskzero62", 
      "inputs": [[477, 0, 0], [5, 0, 0]]
    }, 
    {
      "op": "elemwise_add", 
      "name": "_plus29", 
      "inputs": [[445, 0, 0], [478, 0, 0]]
    }, 
    {
      "op": "LeakyReLU", 
      "name": "leakyrelu56", 
      "attrs": {"slope": "0.1"}, 
      "inputs": [[479, 0, 0]]
    }, 
    {
      "op": "null", 
      "name": "convolution58_weight", 
      "attrs": {
        "cudnn_off": "True", 
        "cudnn_tune": "off", 
        "dilate": "(1, 1)", 
        "kernel": "(1, 3)", 
        "no_bias": "False", 
        "num_filter": "512", 
        "pad": "(0, 1)", 
        "stride": "(1, 1)"
      }, 
      "inputs": []
    }, 
    {
      "op": "null", 
      "name": "convolution58_bias", 
      "attrs": {
        "cudnn_off": "True", 
        "cudnn_tune": "off", 
        "dilate": "(1, 1)", 
        "kernel": "(1, 3)", 
        "no_bias": "False", 
        "num_filter": "512", 
        "pad": "(0, 1)", 
        "stride": "(1, 1)"
      }, 
      "inputs": []
    }, 
    {
      "op": "Convolution", 
      "name": "convolution58", 
      "attrs": {
        "cudnn_off": "True", 
        "cudnn_tune": "off", 
        "dilate": "(1, 1)", 
        "kernel": "(1, 3)", 
        "no_bias": "False", 
        "num_filter": "512", 
        "pad": "(0, 1)", 
        "stride": "(1, 1)"
      }, 
      "inputs": [[480, 0, 0], [481, 0, 0], [482, 0, 0]]
    }, 
    {
      "op": "MaskZero", 
      "name": "maskzero63", 
      "inputs": [[483, 0, 0], [5, 0, 0]]
    }, 
    {
      "op": "LeakyReLU", 
      "name": "leakyrelu57", 
      "attrs": {"slope": "0.1"}, 
      "inputs": [[484, 0, 0]]
    }, 
    {
      "op": "Dropout", 
      "name": "dropout30", 
      "attrs": {
        "flag": "True", 
        "p": "0.1"
      }, 
      "inputs": [[485, 0, 0]]
    }, 
    {
      "op": "null", 
      "name": "convolution59_weight", 
      "attrs": {
        "cudnn_off": "True", 
        "cudnn_tune": "off", 
        "dilate": "(1, 1)", 
        "kernel": "(1, 3)", 
        "no_bias": "False", 
        "num_filter": "512", 
        "pad": "(0, 1)", 
        "stride": "(1, 1)"
      }, 
      "inputs": []
    }, 
    {
      "op": "null", 
      "name": "convolution59_bias", 
      "attrs": {
        "cudnn_off": "True", 
        "cudnn_tune": "off", 
        "dilate": "(1, 1)", 
        "kernel": "(1, 3)", 
        "no_bias": "False", 
        "num_filter": "512", 
        "pad": "(0, 1)", 
        "stride": "(1, 1)"
      }, 
      "inputs": []
    }, 
    {
      "op": "Convolution", 
      "name": "convolution59", 
      "attrs": {
        "cudnn_off": "True", 
        "cudnn_tune": "off", 
        "dilate": "(1, 1)", 
        "kernel": "(1, 3)", 
        "no_bias": "False", 
        "num_filter": "512", 
        "pad": "(0, 1)", 
        "stride": "(1, 1)"
      }, 
      "inputs": [[486, 0, 0], [487, 0, 0], [488, 0, 0]]
    }, 
    {
      "op": "MaskZero", 
      "name": "maskzero64", 
      "inputs": [[489, 0, 0], [5, 0, 0]]
    }, 
    {
      "op": "elemwise_add", 
      "name": "_plus30", 
      "inputs": [[479, 0, 0], [490, 0, 0]]
    }, 
    {
      "op": "LeakyReLU", 
      "name": "leakyrelu58", 
      "attrs": {"slope": "0.1"}, 
      "inputs": [[491, 0, 0]]
    }, 
    {
      "op": "null", 
      "name": "convolution60_weight", 
      "attrs": {
        "cudnn_off": "True", 
        "cudnn_tune": "off", 
        "dilate": "(1, 1)", 
        "kernel": "(1, 3)", 
        "no_bias": "False", 
        "num_filter": "512", 
        "pad": "(0, 1)", 
        "stride": "(1, 1)"
      }, 
      "inputs": []
    }, 
    {
      "op": "null", 
      "name": "convolution60_bias", 
      "attrs": {
        "cudnn_off": "True", 
        "cudnn_tune": "off", 
        "dilate": "(1, 1)", 
        "kernel": "(1, 3)", 
        "no_bias": "False", 
        "num_filter": "512", 
        "pad": "(0, 1)", 
        "stride": "(1, 1)"
      }, 
      "inputs": []
    }, 
    {
      "op": "Convolution", 
      "name": "convolution60", 
      "attrs": {
        "cudnn_off": "True", 
        "cudnn_tune": "off", 
        "dilate": "(1, 1)", 
        "kernel": "(1, 3)", 
        "no_bias": "False", 
        "num_filter": "512", 
        "pad": "(0, 1)", 
        "stride": "(1, 1)"
      }, 
      "inputs": [[492, 0, 0], [493, 0, 0], [494, 0, 0]]
    }, 
    {
      "op": "MaskZero", 
      "name": "maskzero65", 
      "inputs": [[495, 0, 0], [5, 0, 0]]
    }, 
    {
      "op": "LeakyReLU", 
      "name": "leakyrelu59", 
      "attrs": {"slope": "0.1"}, 
      "inputs": [[496, 0, 0]]
    }, 
    {
      "op": "Dropout", 
      "name": "dropout31", 
      "attrs": {
        "flag": "True", 
        "p": "0.1"
      }, 
      "inputs": [[497, 0, 0]]
    }, 
    {
      "op": "null", 
      "name": "convolution61_weight", 
      "attrs": {
        "cudnn_off": "True", 
        "cudnn_tune": "off", 
        "dilate": "(1, 1)", 
        "kernel": "(1, 3)", 
        "no_bias": "False", 
        "num_filter": "512", 
        "pad": "(0, 1)", 
        "stride": "(1, 1)"
      }, 
      "inputs": []
    }, 
    {
      "op": "null", 
      "name": "convolution61_bias", 
      "attrs": {
        "cudnn_off": "True", 
        "cudnn_tune": "off", 
        "dilate": "(1, 1)", 
        "kernel": "(1, 3)", 
        "no_bias": "False", 
        "num_filter": "512", 
        "pad": "(0, 1)", 
        "stride": "(1, 1)"
      }, 
      "inputs": []
    }, 
    {
      "op": "Convolution", 
      "name": "convolution61", 
      "attrs": {
        "cudnn_off": "True", 
        "cudnn_tune": "off", 
        "dilate": "(1, 1)", 
        "kernel": "(1, 3)", 
        "no_bias": "False", 
        "num_filter": "512", 
        "pad": "(0, 1)", 
        "stride": "(1, 1)"
      }, 
      "inputs": [[498, 0, 0], [499, 0, 0], [500, 0, 0]]
    }, 
    {
      "op": "MaskZero", 
      "name": "maskzero66", 
      "inputs": [[501, 0, 0], [5, 0, 0]]
    }, 
    {
      "op": "elemwise_add", 
      "name": "_plus31", 
      "inputs": [[491, 0, 0], [502, 0, 0]]
    }, 
    {
      "op": "LeakyReLU", 
      "name": "leakyrelu60", 
      "attrs": {"slope": "0.1"}, 
      "inputs": [[503, 0, 0]]
    }, 
    {
      "op": "SwapAxis", 
      "name": "swapaxes8", 
      "attrs": {
        "dim1": "1", 
        "dim2": "3"
      }, 
      "inputs": [[504, 0, 0]]
    }, 
    {
      "op": "Reshape", 
      "name": "reshape38", 
      "attrs": {"shape": "(0, 0, -1)"}, 
      "inputs": [[505, 0, 0]]
    }, 
    {
      "op": "null", 
      "name": "fullyconnected8_weight", 
      "attrs": {
        "flatten": "False", 
        "num_hidden": "1536"
      }, 
      "inputs": []
    }, 
    {
      "op": "null", 
      "name": "fullyconnected8_bias", 
      "attrs": {
        "flatten": "False", 
        "num_hidden": "1536"
      }, 
      "inputs": []
    }, 
    {
      "op": "FullyConnected", 
      "name": "fullyconnected8", 
      "attrs": {
        "flatten": "False", 
        "num_hidden": "1536"
      }, 
      "inputs": [[506, 0, 0], [507, 0, 0], [508, 0, 0]]
    }, 
    {
      "op": "SliceChannel", 
      "name": "split4", 
      "attrs": {
        "axis": "2", 
        "num_outputs": "3"
      }, 
      "inputs": [[509, 0, 0]]
    }, 
    {
      "op": "_mul_scalar", 
      "name": "_mulscalar8", 
      "attrs": {"scalar": "0.015625"}, 
      "inputs": [[510, 0, 0]]
    }, 
    {
      "op": "Reshape", 
      "name": "reshape39", 
      "attrs": {"shape": "(0, -1, 8, 64)"}, 
      "inputs": [[511, 0, 0]]
    }, 
    {
      "op": "transpose", 
      "name": "transpose16", 
      "attrs": {"axes": "(0, 2, 1, 3)"}, 
      "inputs": [[512, 0, 0]]
    }, 
    {
      "op": "Reshape", 
      "name": "reshape40", 
      "attrs": {"shape": "(-3, -1, 64)"}, 
      "inputs": [[513, 0, 0]]
    }, 
    {
      "op": "Reshape", 
      "name": "reshape41", 
      "attrs": {"shape": "(0, -1, 8, 64)"}, 
      "inputs": [[510, 1, 0]]
    }, 
    {
      "op": "transpose", 
      "name": "transpose17", 
      "attrs": {"axes": "(0, 2, 1, 3)"}, 
      "inputs": [[515, 0, 0]]
    }, 
    {
      "op": "Reshape", 
      "name": "reshape42", 
      "attrs": {"shape": "(-3, -1, 64)"}, 
      "inputs": [[516, 0, 0]]
    }, 
    {
      "op": "batch_dot", 
      "name": "batch_dot8", 
      "attrs": {"transpose_b": "True"}, 
      "inputs": [[514, 0, 0], [517, 0, 0]]
    }, 
    {
      "op": "_minus_scalar", 
      "name": "_minusscalar4", 
      "attrs": {"scalar": "1"}, 
      "inputs": [[286, 0, 0]]
    }, 
    {
      "op": "_mul_scalar", 
      "name": "_mulscalar9", 
      "attrs": {"scalar": "10000000000.0"}, 
      "inputs": [[519, 0, 0]]
    }, 
    {
      "op": "broadcast_add", 
      "name": "broadcast_add4", 
      "inputs": [[518, 0, 0], [520, 0, 0]]
    }, 
    {
      "op": "softmax", 
      "name": "softmax4", 
      "attrs": {"axis": "-1"}, 
      "inputs": [[521, 0, 0]]
    }, 
    {
      "op": "Dropout", 
      "name": "dropout32", 
      "attrs": {
        "flag": "True", 
        "p": "0.1"
      }, 
      "inputs": [[522, 0, 0]]
    }, 
    {
      "op": "Reshape", 
      "name": "reshape43", 
      "attrs": {"shape": "(0, -1, 8, 64)"}, 
      "inputs": [[510, 2, 0]]
    }, 
    {
      "op": "transpose", 
      "name": "transpose18", 
      "attrs": {"axes": "(0, 2, 1, 3)"}, 
      "inputs": [[524, 0, 0]]
    }, 
    {
      "op": "Reshape", 
      "name": "reshape44", 
      "attrs": {"shape": "(-3, -1, 64)"}, 
      "inputs": [[525, 0, 0]]
    }, 
    {
      "op": "batch_dot", 
      "name": "batch_dot9", 
      "inputs": [[523, 0, 0], [526, 0, 0]]
    }, 
    {
      "op": "Reshape", 
      "name": "reshape45", 
      "attrs": {"shape": "(-4, -1, 8, 0, 64)"}, 
      "inputs": [[527, 0, 0]]
    }, 
    {
      "op": "transpose", 
      "name": "transpose19", 
      "attrs": {"axes": "(0, 2, 1, 3)"}, 
      "inputs": [[528, 0, 0]]
    }, 
    {
      "op": "Reshape", 
      "name": "reshape46", 
      "attrs": {"shape": "(-1, 0, 512)"}, 
      "inputs": [[529, 0, 0]]
    }, 
    {
      "op": "null", 
      "name": "fullyconnected9_weight", 
      "attrs": {
        "flatten": "False", 
        "num_hidden": "512"
      }, 
      "inputs": []
    }, 
    {
      "op": "null", 
      "name": "fullyconnected9_bias", 
      "attrs": {
        "flatten": "False", 
        "num_hidden": "512"
      }, 
      "inputs": []
    }, 
    {
      "op": "FullyConnected", 
      "name": "fullyconnected9", 
      "attrs": {
        "flatten": "False", 
        "num_hidden": "512"
      }, 
      "inputs": [[530, 0, 0], [531, 0, 0], [532, 0, 0]]
    }, 
    {
      "op": "SwapAxis", 
      "name": "swapaxes9", 
      "attrs": {
        "dim1": "1", 
        "dim2": "2"
      }, 
      "inputs": [[533, 0, 0]]
    }, 
    {
      "op": "expand_dims", 
      "name": "expand_dims4", 
      "attrs": {"axis": "2"}, 
      "inputs": [[534, 0, 0]]
    }, 
    {
      "op": "MaskZero", 
      "name": "maskzero67", 
      "inputs": [[535, 0, 0], [5, 0, 0]]
    }, 
    {
      "op": "elemwise_add", 
      "name": "_plus32", 
      "inputs": [[503, 0, 0], [536, 0, 0]]
    }, 
    {
      "op": "LeakyReLU", 
      "name": "leakyrelu61", 
      "attrs": {"slope": "0.1"}, 
      "inputs": [[537, 0, 0]]
    }, 
    {
      "op": "null", 
      "name": "convolution62_weight", 
      "attrs": {
        "cudnn_off": "True", 
        "cudnn_tune": "off", 
        "dilate": "(1, 1)", 
        "kernel": "(1, 3)", 
        "no_bias": "False", 
        "num_filter": "512", 
        "pad": "(0, 1)", 
        "stride": "(1, 1)"
      }, 
      "inputs": []
    }, 
    {
      "op": "null", 
      "name": "convolution62_bias", 
      "attrs": {
        "cudnn_off": "True", 
        "cudnn_tune": "off", 
        "dilate": "(1, 1)", 
        "kernel": "(1, 3)", 
        "no_bias": "False", 
        "num_filter": "512", 
        "pad": "(0, 1)", 
        "stride": "(1, 1)"
      }, 
      "inputs": []
    }, 
    {
      "op": "Convolution", 
      "name": "convolution62", 
      "attrs": {
        "cudnn_off": "True", 
        "cudnn_tune": "off", 
        "dilate": "(1, 1)", 
        "kernel": "(1, 3)", 
        "no_bias": "False", 
        "num_filter": "512", 
        "pad": "(0, 1)", 
        "stride": "(1, 1)"
      }, 
      "inputs": [[538, 0, 0], [539, 0, 0], [540, 0, 0]]
    }, 
    {
      "op": "MaskZero", 
      "name": "maskzero68", 
      "inputs": [[541, 0, 0], [5, 0, 0]]
    }, 
    {
      "op": "LeakyReLU", 
      "name": "leakyrelu62", 
      "attrs": {"slope": "0.1"}, 
      "inputs": [[542, 0, 0]]
    }, 
    {
      "op": "Dropout", 
      "name": "dropout33", 
      "attrs": {
        "flag": "True", 
        "p": "0.1"
      }, 
      "inputs": [[543, 0, 0]]
    }, 
    {
      "op": "null", 
      "name": "convolution63_weight", 
      "attrs": {
        "cudnn_off": "True", 
        "cudnn_tune": "off", 
        "dilate": "(1, 1)", 
        "kernel": "(1, 3)", 
        "no_bias": "False", 
        "num_filter": "512", 
        "pad": "(0, 1)", 
        "stride": "(1, 1)"
      }, 
      "inputs": []
    }, 
    {
      "op": "null", 
      "name": "convolution63_bias", 
      "attrs": {
        "cudnn_off": "True", 
        "cudnn_tune": "off", 
        "dilate": "(1, 1)", 
        "kernel": "(1, 3)", 
        "no_bias": "False", 
        "num_filter": "512", 
        "pad": "(0, 1)", 
        "stride": "(1, 1)"
      }, 
      "inputs": []
    }, 
    {
      "op": "Convolution", 
      "name": "convolution63", 
      "attrs": {
        "cudnn_off": "True", 
        "cudnn_tune": "off", 
        "dilate": "(1, 1)", 
        "kernel": "(1, 3)", 
        "no_bias": "False", 
        "num_filter": "512", 
        "pad": "(0, 1)", 
        "stride": "(1, 1)"
      }, 
      "inputs": [[544, 0, 0], [545, 0, 0], [546, 0, 0]]
    }, 
    {
      "op": "MaskZero", 
      "name": "maskzero69", 
      "inputs": [[547, 0, 0], [5, 0, 0]]
    }, 
    {
      "op": "elemwise_add", 
      "name": "_plus33", 
      "inputs": [[537, 0, 0], [548, 0, 0]]
    }, 
    {
      "op": "null", 
      "name": "convolution64_weight", 
      "attrs": {
        "cudnn_off": "True", 
        "cudnn_tune": "off", 
        "dilate": "(1, 1)", 
        "kernel": "(1, 1)", 
        "no_bias": "True", 
        "num_filter": "768", 
        "pad": "(0, 0)", 
        "stride": "(1, 1)"
      }, 
      "inputs": []
    }, 
    {
      "op": "Convolution", 
      "name": "convolution64", 
      "attrs": {
        "cudnn_off": "True", 
        "cudnn_tune": "off", 
        "dilate": "(1, 1)", 
        "kernel": "(1, 1)", 
        "no_bias": "True", 
        "num_filter": "768", 
        "pad": "(0, 0)", 
        "stride": "(1, 1)"
      }, 
      "inputs": [[549, 0, 0], [550, 0, 0]]
    }, 
    {
      "op": "MaskZero", 
      "name": "maskzero70", 
      "inputs": [[551, 0, 0], [5, 0, 0]]
    }, 
    {
      "op": "LeakyReLU", 
      "name": "leakyrelu63", 
      "attrs": {"slope": "0.1"}, 
      "inputs": [[549, 0, 0]]
    }, 
    {
      "op": "null", 
      "name": "convolution65_weight", 
      "attrs": {
        "cudnn_off": "True", 
        "cudnn_tune": "off", 
        "dilate": "(1, 1)", 
        "kernel": "(1, 3)", 
        "no_bias": "False", 
        "num_filter": "768", 
        "pad": "(0, 1)", 
        "stride": "(1, 1)"
      }, 
      "inputs": []
    }, 
    {
      "op": "null", 
      "name": "convolution65_bias", 
      "attrs": {
        "cudnn_off": "True", 
        "cudnn_tune": "off", 
        "dilate": "(1, 1)", 
        "kernel": "(1, 3)", 
        "no_bias": "False", 
        "num_filter": "768", 
        "pad": "(0, 1)", 
        "stride": "(1, 1)"
      }, 
      "inputs": []
    }, 
    {
      "op": "Convolution", 
      "name": "convolution65", 
      "attrs": {
        "cudnn_off": "True", 
        "cudnn_tune": "off", 
        "dilate": "(1, 1)", 
        "kernel": "(1, 3)", 
        "no_bias": "False", 
        "num_filter": "768", 
        "pad": "(0, 1)", 
        "stride": "(1, 1)"
      }, 
      "inputs": [[553, 0, 0], [554, 0, 0], [555, 0, 0]]
    }, 
    {
      "op": "MaskZero", 
      "name": "maskzero71", 
      "inputs": [[556, 0, 0], [5, 0, 0]]
    }, 
    {
      "op": "LeakyReLU", 
      "name": "leakyrelu64", 
      "attrs": {"slope": "0.1"}, 
      "inputs": [[557, 0, 0]]
    }, 
    {
      "op": "Dropout", 
      "name": "dropout34", 
      "attrs": {
        "flag": "True", 
        "p": "0.1"
      }, 
      "inputs": [[558, 0, 0]]
    }, 
    {
      "op": "null", 
      "name": "convolution66_weight", 
      "attrs": {
        "cudnn_off": "True", 
        "cudnn_tune": "off", 
        "dilate": "(1, 1)", 
        "kernel": "(1, 3)", 
        "no_bias": "False", 
        "num_filter": "768", 
        "pad": "(0, 1)", 
        "stride": "(1, 1)"
      }, 
      "inputs": []
    }, 
    {
      "op": "null", 
      "name": "convolution66_bias", 
      "attrs": {
        "cudnn_off": "True", 
        "cudnn_tune": "off", 
        "dilate": "(1, 1)", 
        "kernel": "(1, 3)", 
        "no_bias": "False", 
        "num_filter": "768", 
        "pad": "(0, 1)", 
        "stride": "(1, 1)"
      }, 
      "inputs": []
    }, 
    {
      "op": "Convolution", 
      "name": "convolution66", 
      "attrs": {
        "cudnn_off": "True", 
        "cudnn_tune": "off", 
        "dilate": "(1, 1)", 
        "kernel": "(1, 3)", 
        "no_bias": "False", 
        "num_filter": "768", 
        "pad": "(0, 1)", 
        "stride": "(1, 1)"
      }, 
      "inputs": [[559, 0, 0], [560, 0, 0], [561, 0, 0]]
    }, 
    {
      "op": "MaskZero", 
      "name": "maskzero72", 
      "inputs": [[562, 0, 0], [5, 0, 0]]
    }, 
    {
      "op": "elemwise_add", 
      "name": "_plus34", 
      "inputs": [[552, 0, 0], [563, 0, 0]]
    }, 
    {
      "op": "LeakyReLU", 
      "name": "leakyrelu65", 
      "attrs": {"slope": "0.1"}, 
      "inputs": [[564, 0, 0]]
    }, 
    {
      "op": "SwapAxis", 
      "name": "swapaxes10", 
      "attrs": {
        "dim1": "1", 
        "dim2": "3"
      }, 
      "inputs": [[565, 0, 0]]
    }, 
    {
      "op": "Reshape", 
      "name": "reshape47", 
      "attrs": {"shape": "(0, 0, -1)"}, 
      "inputs": [[566, 0, 0]]
    }, 
    {
      "op": "null", 
      "name": "fullyconnected10_weight", 
      "attrs": {
        "flatten": "False", 
        "num_hidden": "1536"
      }, 
      "inputs": []
    }, 
    {
      "op": "null", 
      "name": "fullyconnected10_bias", 
      "attrs": {
        "flatten": "False", 
        "num_hidden": "1536"
      }, 
      "inputs": []
    }, 
    {
      "op": "FullyConnected", 
      "name": "fullyconnected10", 
      "attrs": {
        "flatten": "False", 
        "num_hidden": "1536"
      }, 
      "inputs": [[567, 0, 0], [568, 0, 0], [569, 0, 0]]
    }, 
    {
      "op": "SliceChannel", 
      "name": "split5", 
      "attrs": {
        "axis": "2", 
        "num_outputs": "3"
      }, 
      "inputs": [[570, 0, 0]]
    }, 
    {
      "op": "_mul_scalar", 
      "name": "_mulscalar10", 
      "attrs": {"scalar": "0.015625"}, 
      "inputs": [[571, 0, 0]]
    }, 
    {
      "op": "Reshape", 
      "name": "reshape48", 
      "attrs": {"shape": "(0, -1, 8, 64)"}, 
      "inputs": [[572, 0, 0]]
    }, 
    {
      "op": "transpose", 
      "name": "transpose20", 
      "attrs": {"axes": "(0, 2, 1, 3)"}, 
      "inputs": [[573, 0, 0]]
    }, 
    {
      "op": "Reshape", 
      "name": "reshape49", 
      "attrs": {"shape": "(-3, -1, 64)"}, 
      "inputs": [[574, 0, 0]]
    }, 
    {
      "op": "Reshape", 
      "name": "reshape50", 
      "attrs": {"shape": "(0, -1, 8, 64)"}, 
      "inputs": [[571, 1, 0]]
    }, 
    {
      "op": "transpose", 
      "name": "transpose21", 
      "attrs": {"axes": "(0, 2, 1, 3)"}, 
      "inputs": [[576, 0, 0]]
    }, 
    {
      "op": "Reshape", 
      "name": "reshape51", 
      "attrs": {"shape": "(-3, -1, 64)"}, 
      "inputs": [[577, 0, 0]]
    }, 
    {
      "op": "batch_dot", 
      "name": "batch_dot10", 
      "attrs": {"transpose_b": "True"}, 
      "inputs": [[575, 0, 0], [578, 0, 0]]
    }, 
    {
      "op": "_minus_scalar", 
      "name": "_minusscalar5", 
      "attrs": {"scalar": "1"}, 
      "inputs": [[286, 0, 0]]
    }, 
    {
      "op": "_mul_scalar", 
      "name": "_mulscalar11", 
      "attrs": {"scalar": "10000000000.0"}, 
      "inputs": [[580, 0, 0]]
    }, 
    {
      "op": "broadcast_add", 
      "name": "broadcast_add5", 
      "inputs": [[579, 0, 0], [581, 0, 0]]
    }, 
    {
      "op": "softmax", 
      "name": "softmax5", 
      "attrs": {"axis": "-1"}, 
      "inputs": [[582, 0, 0]]
    }, 
    {
      "op": "Dropout", 
      "name": "dropout35", 
      "attrs": {
        "flag": "True", 
        "p": "0.1"
      }, 
      "inputs": [[583, 0, 0]]
    }, 
    {
      "op": "Reshape", 
      "name": "reshape52", 
      "attrs": {"shape": "(0, -1, 8, 64)"}, 
      "inputs": [[571, 2, 0]]
    }, 
    {
      "op": "transpose", 
      "name": "transpose22", 
      "attrs": {"axes": "(0, 2, 1, 3)"}, 
      "inputs": [[585, 0, 0]]
    }, 
    {
      "op": "Reshape", 
      "name": "reshape53", 
      "attrs": {"shape": "(-3, -1, 64)"}, 
      "inputs": [[586, 0, 0]]
    }, 
    {
      "op": "batch_dot", 
      "name": "batch_dot11", 
      "inputs": [[584, 0, 0], [587, 0, 0]]
    }, 
    {
      "op": "Reshape", 
      "name": "reshape54", 
      "attrs": {"shape": "(-4, -1, 8, 0, 64)"}, 
      "inputs": [[588, 0, 0]]
    }, 
    {
      "op": "transpose", 
      "name": "transpose23", 
      "attrs": {"axes": "(0, 2, 1, 3)"}, 
      "inputs": [[589, 0, 0]]
    }, 
    {
      "op": "Reshape", 
      "name": "reshape55", 
      "attrs": {"shape": "(-1, 0, 512)"}, 
      "inputs": [[590, 0, 0]]
    }, 
    {
      "op": "null", 
      "name": "fullyconnected11_weight", 
      "attrs": {
        "flatten": "False", 
        "num_hidden": "768"
      }, 
      "inputs": []
    }, 
    {
      "op": "null", 
      "name": "fullyconnected11_bias", 
      "attrs": {
        "flatten": "False", 
        "num_hidden": "768"
      }, 
      "inputs": []
    }, 
    {
      "op": "FullyConnected", 
      "name": "fullyconnected11", 
      "attrs": {
        "flatten": "False", 
        "num_hidden": "768"
      }, 
      "inputs": [[591, 0, 0], [592, 0, 0], [593, 0, 0]]
    }, 
    {
      "op": "SwapAxis", 
      "name": "swapaxes11", 
      "attrs": {
        "dim1": "1", 
        "dim2": "2"
      }, 
      "inputs": [[594, 0, 0]]
    }, 
    {
      "op": "expand_dims", 
      "name": "expand_dims5", 
      "attrs": {"axis": "2"}, 
      "inputs": [[595, 0, 0]]
    }, 
    {
      "op": "MaskZero", 
      "name": "maskzero73", 
      "inputs": [[596, 0, 0], [5, 0, 0]]
    }, 
    {
      "op": "elemwise_add", 
      "name": "_plus35", 
      "inputs": [[564, 0, 0], [597, 0, 0]]
    }, 
    {
      "op": "LeakyReLU", 
      "name": "leakyrelu66", 
      "attrs": {"slope": "0.1"}, 
      "inputs": [[598, 0, 0]]
    }, 
    {
      "op": "null", 
      "name": "convolution67_weight", 
      "attrs": {
        "cudnn_off": "True", 
        "cudnn_tune": "off", 
        "dilate": "(1, 1)", 
        "kernel": "(1, 3)", 
        "no_bias": "False", 
        "num_filter": "768", 
        "pad": "(0, 1)", 
        "stride": "(1, 1)"
      }, 
      "inputs": []
    }, 
    {
      "op": "null", 
      "name": "convolution67_bias", 
      "attrs": {
        "cudnn_off": "True", 
        "cudnn_tune": "off", 
        "dilate": "(1, 1)", 
        "kernel": "(1, 3)", 
        "no_bias": "False", 
        "num_filter": "768", 
        "pad": "(0, 1)", 
        "stride": "(1, 1)"
      }, 
      "inputs": []
    }, 
    {
      "op": "Convolution", 
      "name": "convolution67", 
      "attrs": {
        "cudnn_off": "True", 
        "cudnn_tune": "off", 
        "dilate": "(1, 1)", 
        "kernel": "(1, 3)", 
        "no_bias": "False", 
        "num_filter": "768", 
        "pad": "(0, 1)", 
        "stride": "(1, 1)"
      }, 
      "inputs": [[599, 0, 0], [600, 0, 0], [601, 0, 0]]
    }, 
    {
      "op": "MaskZero", 
      "name": "maskzero74", 
      "inputs": [[602, 0, 0], [5, 0, 0]]
    }, 
    {
      "op": "LeakyReLU", 
      "name": "leakyrelu67", 
      "attrs": {"slope": "0.1"}, 
      "inputs": [[603, 0, 0]]
    }, 
    {
      "op": "Dropout", 
      "name": "dropout36", 
      "attrs": {
        "flag": "True", 
        "p": "0.1"
      }, 
      "inputs": [[604, 0, 0]]
    }, 
    {
      "op": "null", 
      "name": "convolution68_weight", 
      "attrs": {
        "cudnn_off": "True", 
        "cudnn_tune": "off", 
        "dilate": "(1, 1)", 
        "kernel": "(1, 3)", 
        "no_bias": "False", 
        "num_filter": "768", 
        "pad": "(0, 1)", 
        "stride": "(1, 1)"
      }, 
      "inputs": []
    }, 
    {
      "op": "null", 
      "name": "convolution68_bias", 
      "attrs": {
        "cudnn_off": "True", 
        "cudnn_tune": "off", 
        "dilate": "(1, 1)", 
        "kernel": "(1, 3)", 
        "no_bias": "False", 
        "num_filter": "768", 
        "pad": "(0, 1)", 
        "stride": "(1, 1)"
      }, 
      "inputs": []
    }, 
    {
      "op": "Convolution", 
      "name": "convolution68", 
      "attrs": {
        "cudnn_off": "True", 
        "cudnn_tune": "off", 
        "dilate": "(1, 1)", 
        "kernel": "(1, 3)", 
        "no_bias": "False", 
        "num_filter": "768", 
        "pad": "(0, 1)", 
        "stride": "(1, 1)"
      }, 
      "inputs": [[605, 0, 0], [606, 0, 0], [607, 0, 0]]
    }, 
    {
      "op": "MaskZero", 
      "name": "maskzero75", 
      "inputs": [[608, 0, 0], [5, 0, 0]]
    }, 
    {
      "op": "elemwise_add", 
      "name": "_plus36", 
      "inputs": [[598, 0, 0], [609, 0, 0]]
    }, 
    {
      "op": "LeakyReLU", 
      "name": "leakyrelu68", 
      "attrs": {"slope": "0.1"}, 
      "inputs": [[610, 0, 0]]
    }, 
    {
      "op": "null", 
      "name": "convolution69_weight", 
      "attrs": {
        "cudnn_off": "True", 
        "cudnn_tune": "off", 
        "dilate": "(1, 1)", 
        "kernel": "(1, 3)", 
        "no_bias": "False", 
        "num_filter": "768", 
        "pad": "(0, 1)", 
        "stride": "(1, 1)"
      }, 
      "inputs": []
    }, 
    {
      "op": "null", 
      "name": "convolution69_bias", 
      "attrs": {
        "cudnn_off": "True", 
        "cudnn_tune": "off", 
        "dilate": "(1, 1)", 
        "kernel": "(1, 3)", 
        "no_bias": "False", 
        "num_filter": "768", 
        "pad": "(0, 1)", 
        "stride": "(1, 1)"
      }, 
      "inputs": []
    }, 
    {
      "op": "Convolution", 
      "name": "convolution69", 
      "attrs": {
        "cudnn_off": "True", 
        "cudnn_tune": "off", 
        "dilate": "(1, 1)", 
        "kernel": "(1, 3)", 
        "no_bias": "False", 
        "num_filter": "768", 
        "pad": "(0, 1)", 
        "stride": "(1, 1)"
      }, 
      "inputs": [[611, 0, 0], [612, 0, 0], [613, 0, 0]]
    }, 
    {
      "op": "MaskZero", 
      "name": "maskzero76", 
      "inputs": [[614, 0, 0], [5, 0, 0]]
    }, 
    {
      "op": "LeakyReLU", 
      "name": "leakyrelu69", 
      "attrs": {"slope": "0.1"}, 
      "inputs": [[615, 0, 0]]
    }, 
    {
      "op": "Dropout", 
      "name": "dropout37", 
      "attrs": {
        "flag": "True", 
        "p": "0.1"
      }, 
      "inputs": [[616, 0, 0]]
    }, 
    {
      "op": "null", 
      "name": "convolution70_weight", 
      "attrs": {
        "cudnn_off": "True", 
        "cudnn_tune": "off", 
        "dilate": "(1, 1)", 
        "kernel": "(1, 3)", 
        "no_bias": "False", 
        "num_filter": "768", 
        "pad": "(0, 1)", 
        "stride": "(1, 1)"
      }, 
      "inputs": []
    }, 
    {
      "op": "null", 
      "name": "convolution70_bias", 
      "attrs": {
        "cudnn_off": "True", 
        "cudnn_tune": "off", 
        "dilate": "(1, 1)", 
        "kernel": "(1, 3)", 
        "no_bias": "False", 
        "num_filter": "768", 
        "pad": "(0, 1)", 
        "stride": "(1, 1)"
      }, 
      "inputs": []
    }, 
    {
      "op": "Convolution", 
      "name": "convolution70", 
      "attrs": {
        "cudnn_off": "True", 
        "cudnn_tune": "off", 
        "dilate": "(1, 1)", 
        "kernel": "(1, 3)", 
        "no_bias": "False", 
        "num_filter": "768", 
        "pad": "(0, 1)", 
        "stride": "(1, 1)"
      }, 
      "inputs": [[617, 0, 0], [618, 0, 0], [619, 0, 0]]
    }, 
    {
      "op": "MaskZero", 
      "name": "maskzero77", 
      "inputs": [[620, 0, 0], [5, 0, 0]]
    }, 
    {
      "op": "elemwise_add", 
      "name": "_plus37", 
      "inputs": [[610, 0, 0], [621, 0, 0]]
    }, 
    {
      "op": "null", 
      "name": "convolution71_weight", 
      "attrs": {
        "cudnn_off": "True", 
        "cudnn_tune": "off", 
        "dilate": "(1, 1)", 
        "kernel": "(1, 1)", 
        "no_bias": "True", 
        "num_filter": "1280", 
        "pad": "(0, 0)", 
        "stride": "(1, 1)"
      }, 
      "inputs": []
    }, 
    {
      "op": "Convolution", 
      "name": "convolution71", 
      "attrs": {
        "cudnn_off": "True", 
        "cudnn_tune": "off", 
        "dilate": "(1, 1)", 
        "kernel": "(1, 1)", 
        "no_bias": "True", 
        "num_filter": "1280", 
        "pad": "(0, 0)", 
        "stride": "(1, 1)"
      }, 
      "inputs": [[622, 0, 0], [623, 0, 0]]
    }, 
    {
      "op": "MaskZero", 
      "name": "maskzero78", 
      "inputs": [[624, 0, 0], [5, 0, 0]]
    }, 
    {
      "op": "LeakyReLU", 
      "name": "leakyrelu70", 
      "attrs": {"slope": "0.1"}, 
      "inputs": [[622, 0, 0]]
    }, 
    {
      "op": "SwapAxis", 
      "name": "swapaxes12", 
      "attrs": {
        "dim1": "1", 
        "dim2": "3"
      }, 
      "inputs": [[626, 0, 0]]
    }, 
    {
      "op": "Reshape", 
      "name": "reshape56", 
      "attrs": {"shape": "(0, 0, -1)"}, 
      "inputs": [[627, 0, 0]]
    }, 
    {
      "op": "null", 
      "name": "fullyconnected12_weight", 
      "attrs": {
        "flatten": "False", 
        "num_hidden": "1536"
      }, 
      "inputs": []
    }, 
    {
      "op": "null", 
      "name": "fullyconnected12_bias", 
      "attrs": {
        "flatten": "False", 
        "num_hidden": "1536"
      }, 
      "inputs": []
    }, 
    {
      "op": "FullyConnected", 
      "name": "fullyconnected12", 
      "attrs": {
        "flatten": "False", 
        "num_hidden": "1536"
      }, 
      "inputs": [[628, 0, 0], [629, 0, 0], [630, 0, 0]]
    }, 
    {
      "op": "SliceChannel", 
      "name": "split6", 
      "attrs": {
        "axis": "2", 
        "num_outputs": "3"
      }, 
      "inputs": [[631, 0, 0]]
    }, 
    {
      "op": "_mul_scalar", 
      "name": "_mulscalar12", 
      "attrs": {"scalar": "0.015625"}, 
      "inputs": [[632, 0, 0]]
    }, 
    {
      "op": "Reshape", 
      "name": "reshape57", 
      "attrs": {"shape": "(0, -1, 8, 64)"}, 
      "inputs": [[633, 0, 0]]
    }, 
    {
      "op": "transpose", 
      "name": "transpose24", 
      "attrs": {"axes": "(0, 2, 1, 3)"}, 
      "inputs": [[634, 0, 0]]
    }, 
    {
      "op": "Reshape", 
      "name": "reshape58", 
      "attrs": {"shape": "(-3, -1, 64)"}, 
      "inputs": [[635, 0, 0]]
    }, 
    {
      "op": "Reshape", 
      "name": "reshape59", 
      "attrs": {"shape": "(0, -1, 8, 64)"}, 
      "inputs": [[632, 1, 0]]
    }, 
    {
      "op": "transpose", 
      "name": "transpose25", 
      "attrs": {"axes": "(0, 2, 1, 3)"}, 
      "inputs": [[637, 0, 0]]
    }, 
    {
      "op": "Reshape", 
      "name": "reshape60", 
      "attrs": {"shape": "(-3, -1, 64)"}, 
      "inputs": [[638, 0, 0]]
    }, 
    {
      "op": "batch_dot", 
      "name": "batch_dot12", 
      "attrs": {"transpose_b": "True"}, 
      "inputs": [[636, 0, 0], [639, 0, 0]]
    }, 
    {
      "op": "_minus_scalar", 
      "name": "_minusscalar6", 
      "attrs": {"scalar": "1"}, 
      "inputs": [[286, 0, 0]]
    }, 
    {
      "op": "_mul_scalar", 
      "name": "_mulscalar13", 
      "attrs": {"scalar": "10000000000.0"}, 
      "inputs": [[641, 0, 0]]
    }, 
    {
      "op": "broadcast_add", 
      "name": "broadcast_add6", 
      "inputs": [[640, 0, 0], [642, 0, 0]]
    }, 
    {
      "op": "softmax", 
      "name": "softmax6", 
      "attrs": {"axis": "-1"}, 
      "inputs": [[643, 0, 0]]
    }, 
    {
      "op": "Dropout", 
      "name": "dropout38", 
      "attrs": {
        "flag": "True", 
        "p": "0.1"
      }, 
      "inputs": [[644, 0, 0]]
    }, 
    {
      "op": "Reshape", 
      "name": "reshape61", 
      "attrs": {"shape": "(0, -1, 8, 64)"}, 
      "inputs": [[632, 2, 0]]
    }, 
    {
      "op": "transpose", 
      "name": "transpose26", 
      "attrs": {"axes": "(0, 2, 1, 3)"}, 
      "inputs": [[646, 0, 0]]
    }, 
    {
      "op": "Reshape", 
      "name": "reshape62", 
      "attrs": {"shape": "(-3, -1, 64)"}, 
      "inputs": [[647, 0, 0]]
    }, 
    {
      "op": "batch_dot", 
      "name": "batch_dot13", 
      "inputs": [[645, 0, 0], [648, 0, 0]]
    }, 
    {
      "op": "Reshape", 
      "name": "reshape63", 
      "attrs": {"shape": "(-4, -1, 8, 0, 64)"}, 
      "inputs": [[649, 0, 0]]
    }, 
    {
      "op": "transpose", 
      "name": "transpose27", 
      "attrs": {"axes": "(0, 2, 1, 3)"}, 
      "inputs": [[650, 0, 0]]
    }, 
    {
      "op": "Reshape", 
      "name": "reshape64", 
      "attrs": {"shape": "(-1, 0, 512)"}, 
      "inputs": [[651, 0, 0]]
    }, 
    {
      "op": "null", 
      "name": "fullyconnected13_weight", 
      "attrs": {
        "flatten": "False", 
        "num_hidden": "1280"
      }, 
      "inputs": []
    }, 
    {
      "op": "null", 
      "name": "fullyconnected13_bias", 
      "attrs": {
        "flatten": "False", 
        "num_hidden": "1280"
      }, 
      "inputs": []
    }, 
    {
      "op": "FullyConnected", 
      "name": "fullyconnected13", 
      "attrs": {
        "flatten": "False", 
        "num_hidden": "1280"
      }, 
      "inputs": [[652, 0, 0], [653, 0, 0], [654, 0, 0]]
    }, 
    {
      "op": "SwapAxis", 
      "name": "swapaxes13", 
      "attrs": {
        "dim1": "1", 
        "dim2": "2"
      }, 
      "inputs": [[655, 0, 0]]
    }, 
    {
      "op": "expand_dims", 
      "name": "expand_dims6", 
      "attrs": {"axis": "2"}, 
      "inputs": [[656, 0, 0]]
    }, 
    {
      "op": "MaskZero", 
      "name": "maskzero79", 
      "inputs": [[657, 0, 0], [5, 0, 0]]
    }, 
    {
      "op": "elemwise_add", 
      "name": "_plus38", 
      "inputs": [[625, 0, 0], [658, 0, 0]]
    }, 
    {
      "op": "LeakyReLU", 
      "name": "leakyrelu71", 
      "attrs": {"slope": "0.1"}, 
      "inputs": [[659, 0, 0]]
    }, 
    {
      "op": "null", 
      "name": "convolution72_weight", 
      "attrs": {
        "cudnn_off": "True", 
        "cudnn_tune": "off", 
        "dilate": "(1, 1)", 
        "kernel": "(1, 3)", 
        "no_bias": "False", 
        "num_filter": "1280", 
        "pad": "(0, 1)", 
        "stride": "(1, 1)"
      }, 
      "inputs": []
    }, 
    {
      "op": "null", 
      "name": "convolution72_bias", 
      "attrs": {
        "cudnn_off": "True", 
        "cudnn_tune": "off", 
        "dilate": "(1, 1)", 
        "kernel": "(1, 3)", 
        "no_bias": "False", 
        "num_filter": "1280", 
        "pad": "(0, 1)", 
        "stride": "(1, 1)"
      }, 
      "inputs": []
    }, 
    {
      "op": "Convolution", 
      "name": "convolution72", 
      "attrs": {
        "cudnn_off": "True", 
        "cudnn_tune": "off", 
        "dilate": "(1, 1)", 
        "kernel": "(1, 3)", 
        "no_bias": "False", 
        "num_filter": "1280", 
        "pad": "(0, 1)", 
        "stride": "(1, 1)"
      }, 
      "inputs": [[660, 0, 0], [661, 0, 0], [662, 0, 0]]
    }, 
    {
      "op": "MaskZero", 
      "name": "maskzero80", 
      "inputs": [[663, 0, 0], [5, 0, 0]]
    }, 
    {
      "op": "LeakyReLU", 
      "name": "leakyrelu72", 
      "attrs": {"slope": "0.1"}, 
      "inputs": [[664, 0, 0]]
    }, 
    {
      "op": "Dropout", 
      "name": "dropout39", 
      "attrs": {
        "flag": "True", 
        "p": "0.1"
      }, 
      "inputs": [[665, 0, 0]]
    }, 
    {
      "op": "null", 
      "name": "convolution73_weight", 
      "attrs": {
        "cudnn_off": "True", 
        "cudnn_tune": "off", 
        "dilate": "(1, 1)", 
        "kernel": "(1, 3)", 
        "no_bias": "False", 
        "num_filter": "1280", 
        "pad": "(0, 1)", 
        "stride": "(1, 1)"
      }, 
      "inputs": []
    }, 
    {
      "op": "null", 
      "name": "convolution73_bias", 
      "attrs": {
        "cudnn_off": "True", 
        "cudnn_tune": "off", 
        "dilate": "(1, 1)", 
        "kernel": "(1, 3)", 
        "no_bias": "False", 
        "num_filter": "1280", 
        "pad": "(0, 1)", 
        "stride": "(1, 1)"
      }, 
      "inputs": []
    }, 
    {
      "op": "Convolution", 
      "name": "convolution73", 
      "attrs": {
        "cudnn_off": "True", 
        "cudnn_tune": "off", 
        "dilate": "(1, 1)", 
        "kernel": "(1, 3)", 
        "no_bias": "False", 
        "num_filter": "1280", 
        "pad": "(0, 1)", 
        "stride": "(1, 1)"
      }, 
      "inputs": [[666, 0, 0], [667, 0, 0], [668, 0, 0]]
    }, 
    {
      "op": "MaskZero", 
      "name": "maskzero81", 
      "inputs": [[669, 0, 0], [5, 0, 0]]
    }, 
    {
      "op": "elemwise_add", 
      "name": "_plus39", 
      "inputs": [[659, 0, 0], [670, 0, 0]]
    }, 
    {
      "op": "LeakyReLU", 
      "name": "leakyrelu73", 
      "attrs": {"slope": "0.1"}, 
      "inputs": [[671, 0, 0]]
    }, 
    {
      "op": "null", 
      "name": "convolution74_weight", 
      "attrs": {
        "cudnn_off": "True", 
        "cudnn_tune": "off", 
        "dilate": "(1, 1)", 
        "kernel": "(1, 3)", 
        "no_bias": "False", 
        "num_filter": "1280", 
        "pad": "(0, 1)", 
        "stride": "(1, 1)"
      }, 
      "inputs": []
    }, 
    {
      "op": "null", 
      "name": "convolution74_bias", 
      "attrs": {
        "cudnn_off": "True", 
        "cudnn_tune": "off", 
        "dilate": "(1, 1)", 
        "kernel": "(1, 3)", 
        "no_bias": "False", 
        "num_filter": "1280", 
        "pad": "(0, 1)", 
        "stride": "(1, 1)"
      }, 
      "inputs": []
    }, 
    {
      "op": "Convolution", 
      "name": "convolution74", 
      "attrs": {
        "cudnn_off": "True", 
        "cudnn_tune": "off", 
        "dilate": "(1, 1)", 
        "kernel": "(1, 3)", 
        "no_bias": "False", 
        "num_filter": "1280", 
        "pad": "(0, 1)", 
        "stride": "(1, 1)"
      }, 
      "inputs": [[672, 0, 0], [673, 0, 0], [674, 0, 0]]
    }, 
    {
      "op": "MaskZero", 
      "name": "maskzero82", 
      "inputs": [[675, 0, 0], [5, 0, 0]]
    }, 
    {
      "op": "LeakyReLU", 
      "name": "leakyrelu74", 
      "attrs": {"slope": "0.1"}, 
      "inputs": [[676, 0, 0]]
    }, 
    {
      "op": "Dropout", 
      "name": "dropout40", 
      "attrs": {
        "flag": "True", 
        "p": "0.1"
      }, 
      "inputs": [[677, 0, 0]]
    }, 
    {
      "op": "null", 
      "name": "convolution75_weight", 
      "attrs": {
        "cudnn_off": "True", 
        "cudnn_tune": "off", 
        "dilate": "(1, 1)", 
        "kernel": "(1, 3)", 
        "no_bias": "False", 
        "num_filter": "1280", 
        "pad": "(0, 1)", 
        "stride": "(1, 1)"
      }, 
      "inputs": []
    }, 
    {
      "op": "null", 
      "name": "convolution75_bias", 
      "attrs": {
        "cudnn_off": "True", 
        "cudnn_tune": "off", 
        "dilate": "(1, 1)", 
        "kernel": "(1, 3)", 
        "no_bias": "False", 
        "num_filter": "1280", 
        "pad": "(0, 1)", 
        "stride": "(1, 1)"
      }, 
      "inputs": []
    }, 
    {
      "op": "Convolution", 
      "name": "convolution75", 
      "attrs": {
        "cudnn_off": "True", 
        "cudnn_tune": "off", 
        "dilate": "(1, 1)", 
        "kernel": "(1, 3)", 
        "no_bias": "False", 
        "num_filter": "1280", 
        "pad": "(0, 1)", 
        "stride": "(1, 1)"
      }, 
      "inputs": [[678, 0, 0], [679, 0, 0], [680, 0, 0]]
    }, 
    {
      "op": "MaskZero", 
      "name": "maskzero83", 
      "inputs": [[681, 0, 0], [5, 0, 0]]
    }, 
    {
      "op": "elemwise_add", 
      "name": "_plus40", 
      "inputs": [[671, 0, 0], [682, 0, 0]]
    }, 
    {
      "op": "LeakyReLU", 
      "name": "leakyrelu75", 
      "attrs": {"slope": "0.1"}, 
      "inputs": [[683, 0, 0]]
    }, 
    {
      "op": "null", 
      "name": "convolution76_weight", 
      "attrs": {
        "cudnn_off": "True", 
        "cudnn_tune": "off", 
        "dilate": "(1, 1)", 
        "kernel": "(1, 3)", 
        "no_bias": "False", 
        "num_filter": "2048", 
        "pad": "(0, 1)", 
        "stride": "(1, 1)"
      }, 
      "inputs": []
    }, 
    {
      "op": "null", 
      "name": "convolution76_bias", 
      "attrs": {
        "cudnn_off": "True", 
        "cudnn_tune": "off", 
        "dilate": "(1, 1)", 
        "kernel": "(1, 3)", 
        "no_bias": "False", 
        "num_filter": "2048", 
        "pad": "(0, 1)", 
        "stride": "(1, 1)"
      }, 
      "inputs": []
    }, 
    {
      "op": "Convolution", 
      "name": "convolution76", 
      "attrs": {
        "cudnn_off": "True", 
        "cudnn_tune": "off", 
        "dilate": "(1, 1)", 
        "kernel": "(1, 3)", 
        "no_bias": "False", 
        "num_filter": "2048", 
        "pad": "(0, 1)", 
        "stride": "(1, 1)"
      }, 
      "inputs": [[684, 0, 0], [685, 0, 0], [686, 0, 0]]
    }, 
    {
      "op": "MaskZero", 
      "name": "maskzero84", 
      "inputs": [[687, 0, 0], [5, 0, 0]]
    }, 
    {
      "op": "LeakyReLU", 
      "name": "leakyrelu76", 
      "attrs": {"slope": "0.1"}, 
      "inputs": [[688, 0, 0]]
    }, 
    {
      "op": "null", 
      "name": "deconvolution1_weight", 
      "attrs": {
        "kernel": "(1, 4)", 
        "num_filter": "512", 
        "pad": "(0, 0)", 
        "stride": "(1, 4)"
      }, 
      "inputs": []
    }, 
    {
      "op": "Deconvolution", 
      "name": "deconvolution1", 
      "attrs": {
        "kernel": "(1, 4)", 
        "num_filter": "512", 
        "pad": "(0, 0)", 
        "stride": "(1, 4)"
      }, 
      "inputs": [[689, 0, 0], [690, 0, 0]]
    }, 
    {
      "op": "MaskZero", 
      "name": "maskzero85", 
      "inputs": [[691, 0, 0], [5, 0, 0]]
    }, 
    {
      "op": "null", 
      "name": "convolution77_weight", 
      "attrs": {
        "cudnn_off": "True", 
        "cudnn_tune": "off", 
        "dilate": "(1, 1)", 
        "kernel": "(1, 1)", 
        "no_bias": "False", 
        "num_filter": "9004", 
        "pad": "(0, 0)", 
        "stride": "(1, 1)"
      }, 
      "inputs": []
    }, 
    {
      "op": "null", 
      "name": "convolution77_bias", 
      "attrs": {
        "cudnn_off": "True", 
        "cudnn_tune": "off", 
        "dilate": "(1, 1)", 
        "kernel": "(1, 1)", 
        "no_bias": "False", 
        "num_filter": "9004", 
        "pad": "(0, 0)", 
        "stride": "(1, 1)"
      }, 
      "inputs": []
    }, 
    {
      "op": "Convolution", 
      "name": "convolution77", 
      "attrs": {
        "cudnn_off": "True", 
        "cudnn_tune": "off", 
        "dilate": "(1, 1)", 
        "kernel": "(1, 1)", 
        "no_bias": "False", 
        "num_filter": "9004", 
        "pad": "(0, 0)", 
        "stride": "(1, 1)"
      }, 
      "inputs": [[692, 0, 0], [693, 0, 0], [694, 0, 0]]
    }, 
    {
      "op": "MaskZero", 
      "name": "maskzero86", 
      "inputs": [[695, 0, 0], [5, 0, 0]]
    }, 
    {
      "op": "SwapAxis", 
      "name": "swapaxis0", 
      "attrs": {
        "dim1": "1", 
        "dim2": "3"
      }, 
      "inputs": [[696, 0, 0]]
    }, 
    {
      "op": "Reshape", 
      "name": "reshape65", 
      "attrs": {"shape": "(-1, 9004)"}, 
      "inputs": [[697, 0, 0]]
    }, 
    {
      "op": "Reshape", 
      "name": "reshape66", 
      "attrs": {"shape": "(-1,)"}, 
      "inputs": [[5, 0, 0]]
    }, 
    {
      "op": "_lesser_scalar", 
      "name": "_lesser_scalar0", 
      "attrs": {"scalar": "-1"}, 
      "inputs": [[699, 0, 0]]
    }, 
    {
      "op": "elemwise_add", 
      "name": "_plus41", 
      "inputs": [[700, 0, 0], [699, 0, 0]]
    }, 
    {
      "op": "SoftmaxOutput", 
      "name": "softmaxoutput0", 
      "attrs": {
        "normalization": "valid", 
        "use_ignore": "True"
      }, 
      "inputs": [[698, 0, 0], [701, 0, 0]]
    }
  ], 
  "arg_nodes": [
    0, 
    2, 
    3, 
    5, 
    8, 
    12, 
    13, 
    18, 
    19, 
    24, 
    25, 
    30, 
    31, 
    35, 
    40, 
    41, 
    46, 
    47, 
    52, 
    53, 
    58, 
    59, 
    64, 
    65, 
    70, 
    71, 
    76, 
    77, 
    82, 
    83, 
    87, 
    92, 
    93, 
    98, 
    99, 
    104, 
    105, 
    110, 
    111, 
    116, 
    117, 
    122, 
    123, 
    128, 
    129, 
    134, 
    135, 
    140, 
    141, 
    146, 
    147, 
    152, 
    153, 
    158, 
    159, 
    164, 
    165, 
    170, 
    171, 
    176, 
    177, 
    182, 
    183, 
    188, 
    189, 
    194, 
    195, 
    200, 
    201, 
    206, 
    207, 
    212, 
    213, 
    218, 
    219, 
    224, 
    225, 
    230, 
    231, 
    235, 
    240, 
    241, 
    246, 
    247, 
    252, 
    253, 
    258, 
    259, 
    264, 
    268, 
    269, 
    274, 
    275, 
    286, 
    299, 
    300, 
    307, 
    308, 
    313, 
    314, 
    319, 
    320, 
    325, 
    326, 
    333, 
    334, 
    357, 
    358, 
    365, 
    366, 
    371, 
    372, 
    377, 
    378, 
    383, 
    384, 
    391, 
    392, 
    415, 
    416, 
    423, 
    424, 
    429, 
    430, 
    435, 
    436, 
    441, 
    442, 
    449, 
    450, 
    473, 
    474, 
    481, 
    482, 
    487, 
    488, 
    493, 
    494, 
    499, 
    500, 
    507, 
    508, 
    531, 
    532, 
    539, 
    540, 
    545, 
    546, 
    550, 
    554, 
    555, 
    560, 
    561, 
    568, 
    569, 
    592, 
    593, 
    600, 
    601, 
    606, 
    607, 
    612, 
    613, 
    618, 
    619, 
    623, 
    629, 
    630, 
    653, 
    654, 
    661, 
    662, 
    667, 
    668, 
    673, 
    674, 
    679, 
    680, 
    685, 
    686, 
    690, 
    693, 
    694
  ], 
  "node_row_ptr": [
    0, 
    1, 
    2, 
    3, 
    4, 
    5, 
    6, 
    7, 
    8, 
    9, 
    10, 
    11, 
    12, 
    13, 
    14, 
    15, 
    16, 
    17, 
    19, 
    20, 
    21, 
    22, 
    23, 
    24, 
    25, 
    26, 
    27, 
    28, 
    29, 
    30, 
    32, 
    33, 
    34, 
    35, 
    36, 
    37, 
    38, 
    39, 
    40, 
    41, 
    42, 
    43, 
    44, 
    45, 
    46, 
    47, 
    49, 
    50, 
    51, 
    52, 
    53, 
    54, 
    55, 
    56, 
    57, 
    58, 
    59, 
    60, 
    62, 
    63, 
    64, 
    65, 
    66, 
    67, 
    68, 
    69, 
    70, 
    71, 
    72, 
    73, 
    75, 
    76, 
    77, 
    78, 
    79, 
    80, 
    81, 
    82, 
    83, 
    84, 
    85, 
    86, 
    88, 
    89, 
    90, 
    91, 
    92, 
    93, 
    94, 
    95, 
    96, 
    97, 
    98, 
    99, 
    100, 
    101, 
    102, 
    103, 
    105, 
    106, 
    107, 
    108, 
    109, 
    110, 
    111, 
    112, 
    113, 
    114, 
    115, 
    116, 
    118, 
    119, 
    120, 
    121, 
    122, 
    123, 
    124, 
    125, 
    126, 
    127, 
    128, 
    129, 
    131, 
    132, 
    133, 
    134, 
    135, 
    136, 
    137, 
    138, 
    139, 
    140, 
    141, 
    142, 
    144, 
    145, 
    146, 
    147, 
    148, 
    149, 
    150, 
    151, 
    152, 
    153, 
    154, 
    155, 
    157, 
    158, 
    159, 
    160, 
    161, 
    162, 
    163, 
    164, 
    165, 
    166, 
    167, 
    168, 
    170, 
    171, 
    172, 
    173, 
    174, 
    175, 
    176, 
    177, 
    178, 
    179, 
    180, 
    181, 
    183, 
    184, 
    185, 
    186, 
    187, 
    188, 
    189, 
    190, 
    191, 
    192, 
    193, 
    194, 
    196, 
    197, 
    198, 
    199, 
    200, 
    201, 
    202, 
    203, 
    204, 
    205, 
    206, 
    207, 
    209, 
    210, 
    211, 
    212, 
    213, 
    214, 
    215, 
    216, 
    217, 
    218, 
    219, 
    220, 
    222, 
    223, 
    224, 
    225, 
    226, 
    227, 
    228, 
    229, 
    230, 
    231, 
    232, 
    233, 
    235, 
    236, 
    237, 
    238, 
    239, 
    240, 
    241, 
    242, 
    243, 
    244, 
    245, 
    246, 
    248, 
    249, 
    250, 
    251, 
    252, 
    253, 
    254, 
    255, 
    256, 
    257, 
    258, 
    259, 
    260, 
    261, 
    262, 
    263, 
    265, 
    266, 
    267, 
    268, 
    269, 
    270, 
    271, 
    272, 
    273, 
    274, 
    275, 
    276, 
    278, 
    279, 
    280, 
    281, 
    282, 
    283, 
    284, 
    285, 
    286, 
    287, 
    288, 
    289, 
    290, 
    291, 
    292, 
    293, 
    294, 
    295, 
    296, 
    297, 
    300, 
    301, 
    302, 
    303, 
    304, 
    305, 
    306, 
    307, 
    308, 
    309, 
    310, 
    311, 
    312, 
    313, 
    315, 
    316, 
    317, 
    318, 
    319, 
    320, 
    321, 
    322, 
    323, 
    324, 
    325, 
    326, 
    327, 
    328, 
    329, 
    330, 
    331, 
    332, 
    333, 
    334, 
    335, 
    337, 
    338, 
    339, 
    340, 
    341, 
    342, 
    343, 
    344, 
    345, 
    346, 
    347, 
    348, 
    350, 
    351, 
    352, 
    353, 
    354, 
    355, 
    356, 
    357, 
    358, 
    359, 
    360, 
    361, 
    364, 
    365, 
    366, 
    367, 
    368, 
    369, 
    370, 
    371, 
    372, 
    373, 
    374, 
    375, 
    376, 
    378, 
    379, 
    380, 
    381, 
    382, 
    383, 
    384, 
    385, 
    386, 
    387, 
    388, 
    389, 
    390, 
    391, 
    392, 
    393, 
    394, 
    395, 
    396, 
    397, 
    398, 
    400, 
    401, 
    402, 
    403, 
    404, 
    405, 
    406, 
    407, 
    408, 
    409, 
    410, 
    411, 
    413, 
    414, 
    415, 
    416, 
    417, 
    418, 
    419, 
    420, 
    421, 
    422, 
    423, 
    424, 
    427, 
    428, 
    429, 
    430, 
    431, 
    432, 
    433, 
    434, 
    435, 
    436, 
    437, 
    438, 
    439, 
    441, 
    442, 
    443, 
    444, 
    445, 
    446, 
    447, 
    448, 
    449, 
    450, 
    451, 
    452, 
    453, 
    454, 
    455, 
    456, 
    457, 
    458, 
    459, 
    460, 
    461, 
    463, 
    464, 
    465, 
    466, 
    467, 
    468, 
    469, 
    470, 
    471, 
    472, 
    473, 
    474, 
    476, 
    477, 
    478, 
    479, 
    480, 
    481, 
    482, 
    483, 
    484, 
    485, 
    486, 
    487, 
    490, 
    491, 
    492, 
    493, 
    494, 
    495, 
    496, 
    497, 
    498, 
    499, 
    500, 
    501, 
    502, 
    504, 
    505, 
    506, 
    507, 
    508, 
    509, 
    510, 
    511, 
    512, 
    513, 
    514, 
    515, 
    516, 
    517, 
    518, 
    519, 
    520, 
    521, 
    522, 
    523, 
    524, 
    526, 
    527, 
    528, 
    529, 
    530, 
    531, 
    532, 
    533, 
    534, 
    535, 
    536, 
    537, 
    539, 
    540, 
    541, 
    542, 
    543, 
    544, 
    545, 
    546, 
    547, 
    548, 
    549, 
    550, 
    553, 
    554, 
    555, 
    556, 
    557, 
    558, 
    559, 
    560, 
    561, 
    562, 
    563, 
    564, 
    565, 
    567, 
    568, 
    569, 
    570, 
    571, 
    572, 
    573, 
    574, 
    575, 
    576, 
    577, 
    578, 
    579, 
    580, 
    581, 
    582, 
    583, 
    584, 
    585, 
    586, 
    587, 
    589, 
    590, 
    591, 
    592, 
    593, 
    594, 
    595, 
    596, 
    597, 
    598, 
    599, 
    600, 
    601, 
    602, 
    603, 
    605, 
    606, 
    607, 
    608, 
    609, 
    610, 
    611, 
    612, 
    613, 
    614, 
    615, 
    616, 
    619, 
    620, 
    621, 
    622, 
    623, 
    624, 
    625, 
    626, 
    627, 
    628, 
    629, 
    630, 
    631, 
    633, 
    634, 
    635, 
    636, 
    637, 
    638, 
    639, 
    640, 
    641, 
    642, 
    643, 
    644, 
    645, 
    646, 
    647, 
    648, 
    649, 
    650, 
    651, 
    652, 
    653, 
    655, 
    656, 
    657, 
    658, 
    659, 
    660, 
    661, 
    662, 
    663, 
    664, 
    665, 
    666, 
    668, 
    669, 
    670, 
    671, 
    672, 
    673, 
    674, 
    675, 
    676, 
    677, 
    678, 
    679, 
    680, 
    681, 
    682, 
    685, 
    686, 
    687, 
    688, 
    689, 
    690, 
    691, 
    692, 
    693, 
    694, 
    695, 
    696, 
    697, 
    699, 
    700, 
    701, 
    702, 
    703, 
    704, 
    705, 
    706, 
    707, 
    708, 
    709, 
    710, 
    711, 
    712, 
    713, 
    714, 
    715, 
    716, 
    717, 
    718, 
    719, 
    721, 
    722, 
    723, 
    724, 
    725, 
    726, 
    727, 
    728, 
    729, 
    730, 
    731, 
    732, 
    734, 
    735, 
    736, 
    737, 
    738, 
    739, 
    740, 
    741, 
    742, 
    743, 
    744, 
    745, 
    746, 
    747, 
    748, 
    749, 
    750, 
    751, 
    752, 
    753, 
    754, 
    755, 
    756, 
    757, 
    758
  ], 
  "heads": [[702, 0, 0]], 
  "attrs": {"mxnet_version": ["int", 1201]}
}